checkpoints/deepsurv_MLP.pt (torch, 349114 bytes, 5 tensors)

encoder.network.0.weight f4 [256, 79]
0	0x3d1fa541	0.038975958
1	0xbd1173c9	-0.035510812
2	0x3dbbea40	0.09175539
3	0x3dbe53f3	0.09293356
4	0xbdcf8456	-0.10132663
5	0x3ce20f3e	0.027595159
6	0x3b8bc53c	0.0042654555
7	0x3c5b7459	0.013394439
8	0xbd8fa84f	-0.07014524
9	0xbd137940	-0.036004305
10	0xbdcd78d5	-0.100328125
11	0xbcfa24fa	-0.03053521
12	0x3d828272	0.06372537
13	0xbd9b5751	-0.07585014
14	0x3c8406bc	0.016116492
15	0xbb441d86	-0.0029924824
16	0xbd921ecc	-0.0713478
17	0xbdb0d2fc	-0.08633992
18	0x3cdc4aec	0.026891194
19	0xbbedb9da	-0.0072548212
20	0xbdc15b01	-0.09441186
21	0x3dda7f3f	0.106688015
22	0xbda0f614	-0.07859436
23	0x3c120d41	0.008914293
24	0xbd74273f	-0.05960774
25	0xbdea07e0	-0.11427283
26	0x3dc1dd00	0.094659805
27	0x3d0cb36a	0.03435079
28	0xbd15a459	-0.036533687
29	0xbd541167	-0.05177441
30	0xbcaf13bf	-0.02137172
31	0xbc928ec8	-0.017890349
32	0x3cf66c3e	0.03008091
33	0xbd850a96	-0.0649616
34	0x3d391bdd	0.045192588
35	0xbcb0766c	-0.021540843
36	0x3da41208	0.08011252
37	0xbd5157be	-0.051109068
38	0x3cfad9d5	0.030621449
39	0x3d9f96f1	0.07792462
40	0x3c3b4ae6	0.011431431
41	0x3d0114ee	0.0315141
42	0x3bf59c86	0.0074954657
43	0xbdcf0a1a	-0.101093486
44	0x3dcde093	0.100526
45	0x3c869227	0.016427113
46	0x3d6065df	0.05478465
47	0xbb8e0a98	-0.004334759
48	0x3d6fa9d9	0.05851159
49	0xbcaf20e9	-0.021377997
50	0x3d281c2e	0.0410425
51	0x3d5f5309	0.054522548
52	0xbd27f4a7	-0.041004803
53	0xbccac261	-0.02475089
54	0xbd52b45d	-0.05144154
55	0x3cb47d77	0.022032483
56	0xbc2baedb	-0.0104787005
57	0xbb8fbfc4	-0.004386874
58	0x3de61d02	0.112360016
59	0x3d5c3d5b	0.05376945
60	0x3d32cf70	0.04365486
61	0xbd28024e	-0.041017823
62	0x3d02d277	0.031938996
63	0x3dd79794	0.10526958
64	0x3dec2a04	0.11531451
65	0xbde34d89	-0.11098773
66	0x3cb10b86	0.02161194
67	0x3d2cd479	0.042194817
68	0xbc042ee4	-0.00806782
69	0xbdc0e9aa	-0.09419568
70	0x3d2d876c	0.042365476
71	0x3ba961eb	0.0051691434
72	0xbdcc85b2	-0.09986438
73	0xbda3f6c2	-0.0800605
74	0xbd280240	-0.04101777
75	0xbd6845ae	-0.056707077
76	0xbc3db764	-0.011579368
77	0xbc55a3e0	-0.013039559
78	0xbd3709aa	-0.04468695
79	0x3c91ebf3	0.017812705
80	0xbd677843	-0.056511175
81	0x3d398458	0.04529223
82	0x3dc107ac	0.094252914
83	0x3dd03e8a	0.101681784
84	0xbd10b7ea	-0.035331644
85	0xbdb088fa	-0.08619876
86	0x3dd8a4b0	0.10578287
87	0x3d2c3873	0.04204602
88	0xbd6b870b	-0.057501834
89	0xbd9220d9	-0.071351714
90	0x3d342e29	0.043989334
91	0xbd83daf8	-0.06438249
92	0x3d95ba9a	0.07310982
93	0x3cb4d83e	0.022075769
94	0x3d3f7590	0.046742976
95	0x3d0b590c	0.03402047
96	0xbd831640	-0.06400728
97	0xbd956b27	-0.07295828
98	0xbd71b430	-0.05900973
99	0x3dbd099a	0.09230347
100	0x3dd15a58	0.1022231
101	0xbdd04712	-0.101698056
102	0x3bc6327e	0.0060484996
103	0xbd179d17	-0.037015047
104	0x3bae7e07	0.005325082
105	0xbdcffc87	-0.10155588
106	0xbdd05aad	-0.10173545
107	0xbdbc6c40	-0.092003345
108	0xbd8b1dbc	-0.06792781
109	0x3d48721e	0.048936956
110	0x3d5ea601	0.054357532
111	0xbdc0416b	-0.093874775
112	0x3cc08d32	0.023504827
113	0xbdb3ea0d	-0.08784876
114	0xbd076d6d	-0.03306334
115	0xbd975717	-0.07389658
116	0x3db0b6d3	0.08628621
117	0x3ddbda62	0.107350126
118	0x3dedbb7a	0.11608024
119	0xbdce370f	-0.10069095
120	0xbbf2147e	-0.0073876968
121	0x3dacd367	0.08438759
122	0xbdcee44e	-0.101021394
123	0xbdb0e0b5	-0.086366095
124	0xbdb9a457	-0.090645485
125	0xbda9c18f	-0.082888715
126	0xbcf5e406	-0.030015957
127	0xbd96b2c7	-0.07358318
128	0xbda72706	-0.0816174
129	0xbcca8f7b	-0.02472662
130	0x3d17fcc9	0.03710631
131	0xbb772dc1	-0.003771648
132	0x3dba236c	0.090887874
133	0xbbeb4443	-0.0071797683
134	0x3cd41e4c	0.025893353
135	0xbd0d3083	-0.034470093
136	0xbba6d8b6	-0.005091752
137	0x3dd42392	0.10358347
138	0x3d8fb610	0.070171475
139	0xbdc124f2	-0.09430875
140	0xbc9319cd	-0.017956639
141	0xbdcdcf06	-0.10049252
142	0xbd3e2888	-0.046425372
143	0x3d3b287f	0.045692917
144	0x3c0a6cfb	0.0084488345
145	0xbd810f56	-0.06301753
146	0x3d647109	0.05577186
147	0x3cb6563a	0.022257913
148	0xbc97fd6b	-0.018553456
149	0xbd6f69ed	-0.058450628
150	0xbda9eb1e	-0.08296798
151	0x3cb3d615	0.021952668
152	0x3d8be0e7	0.06830006
153	0xbddf1d85	-0.10894302
154	0x3cb68191	0.022278579
155	0xbd53d293	-0.05171449
156	0xbcbfb73c	-0.023402803
157	0x3d37b073	0.04484601
158	0x3dafa507	0.08576398
159	0x3d1355e7	0.035970595
160	0x3d93d897	0.072190456
161	0x3dac8428	0.08423644
162	0x3ca1b22a	0.019738276
163	0xbcdcd450	-0.026956707
164	0x3d8e23c5	0.06940416
165	0xbd86026d	-0.065434314
166	0x3c2f1d07	0.010688073
167	0xbdc0365b	-0.093853675
168	0xbdbd1cdd	-0.09234021
169	0x3dc4b766	0.09605293
170	0x3ddba4b2	0.107247725
171	0xbd5e875b	-0.054328304
172	0x3dc44ff8	0.09585565
173	0x3db64859	0.08900518
174	0x3dd6dd62	0.10491444
175	0x3da96226	0.082706735
176	0xb9f8153f	-0.00047318076
177	0xbdd317d4	-0.10307279
178	0x3d0fd568	0.03511563
179	0xbb4debfa	-0.003142117
180	0xbd8e4ca1	-0.069482096
181	0x3cc695ab	0.02424129
182	0xbd544d25	-0.051831383
183	0xb9cb5d43	-0.00038788663
184	0x3d225ef1	0.039641324
185	0x3dbf205f	0.09332346
186	0xbd32f7d4	-0.04369338
187	0xb9d85b58	-0.00041266787
188	0xbc0b935e	-0.008519022
189	0x3d96dc0c	0.07366189
190	0x39fc66c6	0.00048141758
191	0x3d8980d1	0.06714023
192	0xbd15ca02	-0.036569603
193	0x3d841a7d	0.06450365
194	0x3c052e06	0.008128649
195	0xbdb0667c	-0.08613297
196	0x3bff86db	0.0077980584
197	0xba48e875	-0.00076640333
198	0xbd6e11bd	-0.058122385
199	0x3d99bdaf	0.075068824
200	0x3c78226a	0.015144924
201	0x3cccf403	0.025018698
202	0xbd0ca6c3	-0.034338724
203	0xbc5aa810	-0.013345733
204	0x3d83d6cb	0.06437453
205	0xbc3d4361	-0.011551709
206	0xbdaabafe	-0.08336447
207	0x3d23f04d	0.04002409
208	0x3d9160ef	0.07098567
209	0x3d24e997	0.04026183
210	0xbd93e333	-0.07221069
211	0x3d946f47	0.07247787
212	0x3dc64634	0.09681359
213	0x3de0ca7a	0.10976119
214	0xbd4ec36f	-0.05047935
215	0xbd7999f1	-0.060937826
216	0xbcf51d8e	-0.02992132
217	0x3d308884	0.04309894
218	0x3d2dac6c	0.042400762
219	0x3dc047ad	0.09388671
220	0x3d4838fe	0.048882477
221	0x3d1708de	0.03687369
222	0x3dc83cb7	0.097772054
223	0x3de1c3df	0.110236876
224	0xbd1b7650	-0.03795463
225	0x3d28d350	0.04121715
226	0x3d29b8b0	0.041435897
227	0x3d8e16d6	0.06937949
228	0x3c8b549a	0.017008115
229	0x3ce513bb	0.02796351
230	0xbdbbcd8a	-0.09170063
231	0x3dc64a6f	0.09682166
232	0xbc409497	-0.011754177
233	0xbdac3a50	-0.0840956
234	0xbccbf024	-0.024894781
235	0xbdaa3b78	-0.08312124
236	0x3dad8571	0.084727176
237	0xbd7826da	-0.060583927
238	0x3cf74990	0.030186445
239	0x3d7ec427	0.062198784
240	0x3c679522	0.014134677
241	0xbdc04d9c	-0.09389803
242	0xbb90a801	-0.004414559
243	0x3d866b1c	0.06563398
244	0x3cb081ef	0.021546332
245	0x39035f4e	0.00012528637
246	0xbd9eeb24	-0.07759693
247	0xbddb8d20	-0.10720277
248	0x3dbcbc09	0.09215552
249	0x3ddd96da	0.10819788
250	0x3cc216eb	0.023692569
251	0xbd979e65	-0.07403258
252	0x3d56d92e	0.052453212
253	0x3b284ff6	0.0025682426
254	0x3d9dd3c2	0.07706405
255	0x3c329311	0.010899321

encoder.network.0.bias f4 [256]
0	0xbd2e02b7	-0.042483058
1	0x3d200d46	0.03907516
2	0xbc8dacdf	-0.017294345
3	0x3d335497	0.043781843
4	0xbd00d9bd	-0.03145765
5	0xbd9f9228	-0.07791549
6	0xbd0cf0ff	-0.03440952
7	0x3cefa3ad	0.029252851
8	0x3dd74bfb	0.10512539
9	0x3daeeb78	0.08541006
10	0x3d2c04e0	0.041996837
11	0xbd905bbf	-0.07048749
12	0xbdc3a010	-0.09552014
13	0xbd59fba5	-0.053218503
14	0x3cf39678	0.029734835
15	0x3db217f2	0.086959735
16	0x3d43acae	0.047772102
17	0xbc8a2bc3	-0.01686657
18	0xbd0a6565	-0.033788104
19	0x3cb3db36	0.021955114
20	0xbcb388a8	-0.021915749
21	0xbd917889	-0.071030684
22	0x3d426910	0.047463477
23	0xbc00f996	-0.007872006
24	0x3ddcca6d	0.10780797
25	0x3d86fe65	0.06591491
26	0x3d25d770	0.04048866
27	0xbd8bd14b	-0.06827029
28	0x3da24c35	0.079246916
29	0xbcab7a6e	-0.020932402
30	0xbb021ffd	-0.0019855492
31	0xbcdc87f1	-0.02692029
32	0xbdd76945	-0.105181254
33	0xbdc9e931	-0.09858931
34	0x3d80a621	0.062816866
35	0x3d9f2550	0.07770789
36	0xbce756f1	-0.0282397
37	0xbd83512a	-0.06411965
38	0xbdae4ac4	-0.08510354
39	0xbd814e0e	-0.06313716
40	0xbda814b5	-0.082070746
41	0x3d9f6a71	0.07783974
42	0x3cd213d8	0.025644228
43	0x3dbe68d3	0.092973374
44	0x3dd52437	0.10407298
45	0x3cea3287	0.028588546
46	0xbdc6a616	-0.09699647
47	0x3de7e978	0.113238275
48	0x3d8cff76	0.06884663
49	0x3d9cbc27	0.07653075
50	0xbca7e22c	-0.02049359
51	0xbc3df227	-0.011593378
52	0x3dbc2396	0.09186475
53	0x3d9584b8	0.07300705
54	0xbd9e23f6	-0.07721703
55	0xbc078201	-0.008270741
56	0x3c21ebba	0.009882862
57	0xbcefbc27	-0.029264523
58	0x3c4f68f8	0.012659304
59	0xbb8c633b	-0.00428429
60	0xbd388cfa	-0.04505632
61	0xbd7519b9	-0.059838984
62	0xbb07385c	-0.0020632958
63	0x3defbc18	0.11705798
64	0xbcffdc58	-0.031232998
65	0xbd2bbf1b	-0.0419303
66	0x3c344a8b	0.011004101
67	0xbd3c35e0	-0.045949817
68	0x3dd933b6	0.10605566
69	0xbd18d464	-0.037311926
70	0x3dcf1042	0.10110523
71	0xbd83ea74	-0.06441203
72	0xbd16bae0	-0.03679931
73	0x3dc7e8e0	0.09761214
74	0xbdb7686a	-0.08955462
75	0xbcdc20fe	-0.0268712
76	0x3d96cb5c	0.073630065
77	0xbdd2c95a	-0.10292311
78	0xbc5d9269	-0.013523676
79	0xbdcfbe8c	-0.10143766
80	0xbcb77902	-0.022396568
81	0x3d009936	0.031396113
82	0xbcf77d66	-0.030211162
83	0xbd7be4be	-0.061497442
84	0x3d7d855b	0.061894756
85	0x3c7d7b67	0.015471316
86	0x3c280b29	0.010256567
87	0xbd81fbef	-0.06346881
88	0x3cc084ab	0.023500761
89	0x3dee61f0	0.11639774
90	0xbd5a7a4f	-0.0533393
91	0xbdde74d2	-0.108621255
92	0xbc37f748	-0.01122839
93	0x3dcc941a	0.09989186
94	0x3d2d5bbb	0.04232381
95	0x3ddf3d78	0.10900396
96	0xbd523a84	-0.051325336
97	0xbd94c93f	-0.07264947
98	0xbdbdfdb0	-0.09276903
99	0xbda450f7	-0.08023255
100	0x3d907990	0.07054436
101	0x3d50b5d3	0.05095465
102	0xbcd7d2e5	-0.02634568
103	0x3dab67f6	0.08369438
104	0x3d8acec8	0.06777722
105	0x3d290d97	0.041272726
106	0x3db5a1d6	0.088687584
107	0x3dbfbff1	0.09362782
108	0x3cbd382c	0.023098074
109	0xbd37fcca	-0.044918813
110	0x3d0a7d2b	0.033810776
111	0x3dba3d3d	0.090937115
112	0xbd5dc49f	-0.05414259
113	0x3d27419b	0.04083405
114	0xbdc819a7	-0.09770518
115	0x3c3f8c3c	0.011691149
116	0xbdb53d95	-0.088496365
117	0x3d985719	0.074384876
118	0x3cbac8db	0.022800853
119	0xbc1373ea	-0.008999804
120	0xbb4f1797	-0.0031599754
121	0xbc64ea92	-0.013971942
122	0xbd8991f4	-0.067172915
123	0x3db500e5	0.08838061
124	0xbd854dd7	-0.065089874
125	0x3d6b8e9a	0.057509042
126	0x3b53ebeb	0.0032336663
127	0xbd4dcea5	-0.0502459
128	0xbdc82366	-0.09772377
129	0x3dc0c4e6	0.094125554
130	0x3de5c714	0.11219612
131	0xbd96e4c3	-0.073678516
132	0xbdc495c2	-0.095988765
133	0x3d6dc899	0.058052633
134	0xbd921319	-0.07132549
135	0x3d9659db	0.07341357
136	0xbd94d0a5	-0.07266358
137	0x3ca2f960	0.019894302
138	0x3ba1e3c9	0.004940484
139	0xbd197785	-0.0374675
140	0xbbfc559a	-0.007700634
141	0x3dc91c68	0.09819871
142	0xbcc3be02	-0.023894314
143	0xbd3da947	-0.046304014
144	0x3db30c23	0.08742549
145	0xbd012860	-0.031532645
146	0xbd01e9eb	-0.031717222
147	0x3de9a631	0.114086516
148	0xbdccbb17	-0.09996622
149	0x3dbce88f	0.092240445
150	0xbd1b50a9	-0.03791872
151	0x3cc23342	0.023706082
152	0xbd79a20b	-0.06094555
153	0x3d0ef266	0.034899138
154	0xbb68eeb3	-0.0035542666
155	0xbdbe59bd	-0.0929446
156	0x3ccfe333	0.025376892
157	0x3ce01f95	0.02735881
158	0x3dde998e	0.10869132
159	0x3d69265a	0.05692134
160	0xbda4fcbd	-0.080560185
161	0x3ac32285	0.0014887607
162	0xbd85101f	-0.064972155
163	0x3cb5a7eb	0.022174796
164	0x3d9c54d0	0.07633364
165	0x3db8ef65	0.09030036
166	0x3db09264	0.08621672
167	0xbd7fb59c	-0.062429056
168	0x3c242132	0.01001768
169	0xbd1eddc8	-0.038785726
170	0xbd460d96	-0.0483528
171	0xbd8e3d23	-0.06945255
172	0xbd8464a6	-0.0646451
173	0x3c0600d6	0.00817891
174	0x3ced782b	0.028987965
175	0x3d370332	0.04468078
176	0x3d60e74e	0.05490809
177	0xbde1bb3b	-0.110220395
178	0x3c90d4f7	0.017679675
179	0xbd0791c6	-0.033098005
180	0xbde52787	-0.1118918
181	0x3dd284f4	0.10279265
182	0xbd12878a	-0.03577379
183	0xbdd8c761	-0.105849035
184	0xbc20fbba	-0.009825641
185	0x3de24ec7	0.11050182
186	0x3d8e7374	0.06955615
187	0x3d4b15db	0.04958139
188	0xbdcb97bf	-0.09941053
189	0xbd7de609	-0.061986957
190	0x3d882c90	0.066491246
191	0xbd92bca3	-0.07164886
192	0xbdd3fcd8	-0.103509605
193	0x3db66ef6	0.08907883
194	0x3d90b3b6	0.07065527
195	0xbda54cb6	-0.08071272
196	0xbda3f09e	-0.080048785
197	0x3d3fc341	0.046817068
198	0x3db1f6a3	0.0868962
199	0x3d8f0629	0.06983597
200	0x3dba2108	0.090883315
201	0xbdbf679d	-0.093459345
202	0x3cf2446e	0.029573645
203	0x3d9457c2	0.07243301
204	0x3d3fe3c3	0.04684807
205	0x3c0ec406	0.008713728
206	0x3de32da6	0.11092691
207	0x3d5bb098	0.05363521
208	0x3d4667e5	0.048438925
209	0x3ce0af24	0.027427264
210	0xbcbebb45	-0.023282656
211	0xbdc675b8	-0.09690422
212	0x3d34816b	0.044068735
213	0xbd938443	-0.07202961
214	0x3cda0f35	0.02661858
215	0xbd1fb9c5	-0.038995523
216	0x3d2fcf47	0.042922284
217	0x3dc21da5	0.094783105
218	0xbd78c68c	-0.060736224
219	0x3d9a84ed	0.07544885
220	0xbcbd9aef	-0.023145167
221	0xbb4e2ee7	-0.0031461061
222	0xbdd52452	-0.10407318
223	0x3dd6b57f	0.104838364
224	0xbd096efe	-0.033553116
225	0xbdce7094	-0.10080066
226	0x3b9fbafb	0.0048745847
227	0x3c0d89ae	0.008638782
228	0x3d988871	0.07447899
229	0x3d88cec4	0.066800624
230	0xbd8a9564	-0.06766775
231	0xbdb58c06	-0.08864598
232	0xbd3b9504	-0.04579641
233	0xbd8df0b8	-0.06930679
234	0x3dd27dfd	0.102779366
235	0xbd2f9713	-0.042868685
236	0xbb9e2fd3	-0.0048274784
237	0x3d029e00	0.03188896
238	0x3d1cf804	0.038322464
239	0x3d13953b	0.03603099
240	0x3c8ce0d0	0.017197043
241	0xbdae9d5b	-0.08526107
242	0xbd3cd7af	-0.04610413
243	0xbdc71d1a	-0.097223476
244	0xbdd2a517	-0.10285395
245	0xbd5f7ff5	-0.05456539
246	0xbd9f9a8c	-0.07793149
247	0xbd55a20f	-0.052156504
248	0x3dad2d16	0.08455865
249	0x3c512e92	0.012767451
250	0xbd6e7ee6	-0.05822649
251	0xbd6f4340	-0.058413744
252	0xbd64512b	-0.05574147
253	0x3daa7d3b	0.08324667
254	0xbdb8364d	-0.08994732
255	0xbdd0722b	-0.10178026

encoder.network.3.weight f4 [256, 256]
0	0x3c039574	0.008031238
1	0xbca4884a	-0.020084519
2	0x3ccc2878	0.02492164
3	0x3b41de6d	0.002958204
4	0xbd356665	-0.044287104
5	0xbcc5c05d	-0.024139578
6	0x3c85dd07	0.016340746
7	0xbcd03be8	-0.02541919
8	0x3aacb9bd	0.0013177913
9	0x3d4afe48	0.049558908
10	0x3cde08ee	0.027103867
11	0xbd80e292	-0.06293215
12	0x3d4e40f6	0.05035492
13	0xbd56c323	-0.05243219
14	0x3d6a98a4	0.057274476
15	0xbd2e4d51	-0.042554203
16	0xbbc1e44e	-0.0059171086
17	0xbd2d72ef	-0.042345937
18	0x3c85059c	0.016238026
19	0x3cb9e622	0.022692744
20	0x3c2a9ce6	0.010413384
21	0xbd5866da	-0.052832462
22	0xbc7af640	-0.0153175
23	0x3d4fb923	0.05071367
24	0xbd16f424	-0.036853924
25	0xbc28365f	-0.010266869
26	0xbd780bfb	-0.0605583
27	0x3d6d256f	0.057897028
28	0xbc8c3236	-0.017113786
29	0xbd298d93	-0.04139478
30	0xbce89736	-0.028392415
31	0xbd150bbd	-0.036388148
32	0x3d575853	0.052574467
33	0xbd68ccce	-0.056835942
34	0x3d4220af	0.04739445
35	0xbcdbfd47	-0.02685417
36	0xbcd3a6b0	-0.025836319
37	0xbcd7a645	-0.0263244
38	0xbd51f177	-0.05125567
39	0xbd608565	-0.054814715
40	0x3cda4004	0.026641853
41	0xbd78b58e	-0.06072002
42	0xbcf9cad2	-0.03049222
43	0xbb2589ce	-0.002525914
44	0x3cfa9d87	0.030592693
45	0xbd52cf09	-0.051466975
46	0xbd82837a	-0.063727334
47	0x3d5fc22b	0.054628532
48	0x3d1a0256	0.037599884
49	0x3d612e7d	0.054975975
50	0xbc3a2f1f	-0.011363774
51	0xbd0bd23a	-0.034136035
52	0xbcfbbac4	-0.030728705
53	0xbc286283	-0.010277393
54	0xbc47400e	-0.012161268
55	0x3cea22b3	0.028580999
56	0x3d0a0966	0.03370037
57	0xbbb325f1	-0.0054671695
58	0xbcc36fc1	-0.023857
59	0xbd81489a	-0.06312676
60	0xbd461e08	-0.048368484
61	0xbd27165f	-0.04079282
62	0x3d3e7190	0.04649502
63	0x3d41e768	0.047339827
64	0x3d5b4820	0.05353558
65	0xbca3be14	-0.019988097
66	0xbd59ea7e	-0.053202145
67	0x3cc5f288	0.0241635
68	0xbd0a9ff4	-0.03384395
69	0xbd6e0292	-0.05810792
70	0xbd5b5702	-0.053549774
71	0x3d149f9d	0.03628503
72	0xbd644b64	-0.05573596
73	0xbd2ee303	-0.042696964
74	0xbcc6eb1a	-0.024282027
75	0x3cee2543	0.029070502
76	0xbcd4380d	-0.025905633
77	0xbd698944	-0.057015672
78	0x3d3418a0	0.043968797
79	0xbcfed66a	-0.0311081
80	0xbd4c7b25	-0.049922127
81	0xbc143ece	-0.009048177
82	0xbcd69ae4	-0.026196904
83	0x3ca57bc2	0.020200614
84	0xbc279eeb	-0.01023076
85	0xbd7488c7	-0.059700754
86	0x3d0174ab	0.031605404
87	0x3d2db404	0.042408004
88	0xbc9823f7	-0.018571837
89	0xbd62d48f	-0.055378493
90	0x3d365c41	0.044521574
91	0xbceab9e5	-0.028653095
92	0xbd2f9e11	-0.042875353
93	0xbc889bbb	-0.01667582
94	0xbbb34971	-0.0054714014
95	0xbd50fcdd	-0.0510224
96	0xbcc19122	-0.023628775
97	0xbca49cc1	-0.020094277
98	0x3d2e369a	0.04253254
99	0xbcc65050	-0.024208218
100	0xbcacc629	-0.021090584
101	0xbd0829eb	-0.0332431
102	0xbd2378e9	-0.03991023
103	0x3ce1a6a6	0.027545284
104	0xbc35d88b	-0.011098991
105	0xbad97de2	-0.0016593302
106	0x3ca62815	0.020282784
107	0x3d56e7e9	0.05246726
108	0x3d6eb817	0.05828103
109	0xbca5f4a5	-0.020258257
110	0x3d391d21	0.045193795
111	0x3c299a16	0.010351678
112	0x3cd3df01	0.025863172
113	0xbcdb1c2a	-0.026746828
114	0xbbe18b52	-0.0068830634
115	0xbc808dd2	-0.015692625
116	0x3cbfca47	0.023411883
117	0x3bd71f74	0.006565029
118	0xbcd4a267	-0.025956346
119	0xbc81692e	-0.015797224
120	0xbc96b542	-0.018396977
121	0x3d11c8b3	0.035591792
122	0xbc9a2478	-0.018816218
123	0xbd3c5f37	-0.04598924
124	0x3cef89b2	0.029240463
125	0x3bf3d010	0.0074405745
126	0xbc86d579	-0.016459214
127	0xbd193256	-0.03740152
128	0x3d802c04	0.06258395
129	0x3c3ab9a0	0.0113967955
130	0x3d00ca2d	0.03144281
131	0xbd29ec12	-0.0414849
132	0xbc613e6f	-0.0137477955
133	0xbc121ff1	-0.008918748
134	0x3d523f4c	0.051329896
135	0x3c286e94	0.01028027
136	0x3d110c4b	0.035412114
137	0x3d108a41	0.0352881
138	0x396034d8	0.0002138199
139	0x3bf70d88	0.007539455
140	0x3d2c5dd6	0.042081676
141	0xbb61f6ae	-0.0034479308
142	0xbd294699	-0.041327093
143	0x3d0440af	0.03228825
144	0x3d347fb8	0.044067115
145	0xbcd5a8fa	-0.02608155
146	0x3d1f382a	0.03887192
147	0x3d095090	0.033524096
148	0xbd3e1a27	-0.04641166
149	0xbc4c8792	-0.012483494
150	0xbca1c154	-0.019745506
151	0x3d4e9c00	0.050441742
152	0x3beb93a9	0.0071892333
153	0xbd3e2108	-0.04641822
154	0x3bbb5899	0.005717349
155	0xbd037c84	-0.03210117
156	0xbd55d274	-0.052202657
157	0xbc9205ef	-0.017825095
158	0x3d485d28	0.048916966
159	0xbb943cad	-0.0045238347
160	0x3d35f866	0.044426344
161	0xbd310303	-0.043215763
162	0xbd1fb579	-0.038991425
163	0xbb8e10f9	-0.0043355194
164	0x3d2e5972	0.04256577
165	0x3cdd432b	0.027009567
166	0x3cf0baf9	0.02938603
167	0x3d26064f	0.04053336
168	0xbc1bf231	-0.009518192
169	0x3bd409be	0.006470888
170	0xbb410717	-0.0029453689
171	0xbd70710d	-0.058701564
172	0xbd75864d	-0.059942532
173	0x3d055f4a	0.032561578
174	0x3d33aaf0	0.04386419
175	0x3d3c3d6e	0.04595702
176	0xbd40a718	-0.047034353
177	0x3c8b2ddc	0.01698964
178	0x3d3fdef5	0.046843488
179	0xbd0dde34	-0.034635738
180	0xbd3107df	-0.043220397
181	0x3d683a11	0.056696
182	0xbd04547c	-0.032307133
183	0x3cdc387e	0.026882406
184	0x3d61ff4e	0.05517512
185	0xbd5f076d	-0.05445044
186	0xbc27af41	-0.010234655
187	0x3ccc7e42	0.024962548
188	0x3d375cf8	0.044766396
189	0x3cb88000	0.022521973
190	0xbcdaadd9	-0.026694225
191	0x3d6c9753	0.0577615
192	0xbc7c7024	-0.015407596
193	0x3ce1d994	0.02756957
194	0x3d0f4482	0.034977444
195	0x3d39c4de	0.045353763
196	0xbcc6a746	-0.024249684
197	0xbd17de2d	-0.037077118
198	0xbd3625a7	-0.0444695
199	0xbd70794e	-0.058709435
200	0x3cddb52c	0.027063929
201	0x3cb32ecf	0.021872906
202	0xbd52ceaa	-0.05146662
203	0x3ccc2ac2	0.024922732
204	0x3b638338	0.0034715664
205	0x3cdfe54c	0.027331017
206	0x3ce4cf54	0.027930893
207	0xbd70b5ee	-0.05876725
208	0xbd064221	-0.03277791
209	0xbc7f3dee	-0.01557873
210	0x3d7b0ba1	0.061290387
211	0xbd562125	-0.052277703
212	0xbc280898	-0.010255955
213	0x3d1a4d16	0.03767117
214	0x3cd6bb8f	0.026212482
215	0xbc1f7cfd	-0.009734389
216	0xbd3e3c69	-0.04644433
217	0x3d3e4d65	0.046460528
218	0x3d3f2d26	0.046673916
219	0x3bd07a0a	0.0063622044
220	0xbc03ee44	-0.008052412
221	0x3cfb89aa	0.030705292
222	0xbd2c52f2	-0.04207129
223	0xbcd6dd01	-0.02622843
224	0xbc7fc850	-0.015611723
225	0x3b02a302	0.0019933586
226	0x3d0d8a53	0.034555744
227	0x3d39239c	0.045199975
228	0xbc44ac0b	-0.012003909
229	0xba081b1f	-0.00051920296
230	0x3c6d1791	0.014470951
231	0xbbca0ecc	-0.0061663147
232	0xbca942db	-0.020661762
233	0x3d2a2a0b	0.041544
234	0xbd348486	-0.044071697
235	0xbcff73c5	-0.031183133
236	0xbd40ae16	-0.04704102
237	0x3d26c5c0	0.040715933
238	0xbd83514f	-0.06411993
239	0x3d327570	0.04356903
240	0xbd1e01d7	-0.038575973
241	0x3ca02466	0.019548606
242	0xbcc15c85	-0.023603687
243	0xbd6bd7d2	-0.05757887
244	0x3d0ccad0	0.034373105
245	0xbcc7d9a4	-0.024395771
246	0xbd19699c	-0.037454233
247	0xbd441342	-0.04786993
248	0x3c0f0ff5	0.008731832
249	0x3d623b01	0.05523205
250	0xbd3e91c9	-0.04652575
251	0xbcd43574	-0.025904395
252	0xbd16b3a9	-0.03679243
253	0x3c314664	0.010820005
254	0x3d743fa0	0.05963099
255	0xbd1b9b02	-0.037989624

encoder.network.3.bias f4 [256]
0	0x3cb3a911	0.021931203
1	0x3d1a4f59	0.037673328
2	0x3cdf95e8	0.02729316
3	0xbcbd46fb	-0.023105135
4	0x3d27bf9c	0.040954217
5	0xbcf46359	-0.029832529
6	0x3d417882	0.047234066
7	0x3d8ca800	0.06867981
8	0x3cae19f1	0.021252604
9	0xbcf58969	-0.029972749
10	0xbd590f83	-0.05299331
11	0x3d42037a	0.047366597
12	0x3ce312d0	0.027718931
13	0xbca5adc1	-0.020224454
14	0xbcadbe7d	-0.021208996
15	0x3d8178a0	0.063218355
16	0xbd767fdd	-0.060180534
17	0x3d2f2911	0.042763773
18	0x3c8afb9f	0.016965685
19	0xbcaecd73	-0.0213382
20	0xbd128519	-0.035771463
21	0xbd53500a	-0.051590003
22	0x3c0ec411	0.008713738
23	0x3d79db92	0.061000414
24	0xbbc87f06	-0.006118658
25	0x3d712939	0.058877204
26	0x3d04ce99	0.03242359
27	0x3c57bd4c	0.0131676905
28	0x3c070b03	0.0082423715
29	0x3b92d377	0.004480775
30	0xbc570084	-0.0131226815
31	0x3d42cdf3	0.04755969
32	0xbcaf29f5	-0.021382311
33	0x3d49a4d2	0.04922945
34	0xbd7fe46a	-0.062473692
35	0xbd21f108	-0.039536506
36	0xbd8c8775	-0.06861774
37	0xbd14904e	-0.036270432
38	0xbd1f3f18	-0.03887853
39	0x3d1b3850	0.0378955
40	0xbd17ee66	-0.03709259
41	0xbd115c48	-0.035488397
42	0x3d5ff267	0.054674532
43	0x3d0cd616	0.034383856
44	0xbcd4c052	-0.025970612
45	0x3d7b2000	0.061309814
46	0xbca6ab7d	-0.020345444
47	0xbd230efa	-0.039809205
48	0xbd4e9d7f	-0.05044317
49	0xbbcbbbf0	-0.0062174723
50	0xbce5578c	-0.027995847
51	0xbd2766df	-0.04086959
52	0xbcc6262f	-0.02418813
53	0x3cd96c7d	0.026540989
54	0x3d5cdc83	0.053921234
55	0x3c6f6406	0.01461125
56	0xbd36422d	-0.044496704
57	0xbd68282c	-0.056678936
58	0x3d27cd60	0.040967345
59	0x3ce0dd6b	0.02744933
60	0xbd36d378	-0.044635266
61	0x3cb6c0fd	0.02230882
62	0x3cd7c797	0.026340289
63	0x3d806d0e	0.062708005
64	0x3c09ac00	0.008402824
65	0xb918efe8	-0.00014585222
66	0x3d3c78cb	0.046013635
67	0xbd834b4c	-0.06410846
68	0xbc54b369	-0.012982228
69	0xbbcb1677	-0.0061977464
70	0xbb242b8b	-0.0025050368
71	0xbcaa1f6e	-0.02076694
72	0x3b879da8	0.004138667
73	0xbc1e4929	-0.009660997
74	0xbd872aa9	-0.06599934
75	0x3b8aca8b	0.004235571
76	0x3ce29c3f	0.027662395
77	0xbc98d6da	-0.018657137
78	0xbb9c63a6	-0.004772621
79	0x3d233a57	0.03985056
80	0xbc61910d	-0.013767493
81	0xbd809e91	-0.06280244
82	0x3b8510c5	0.004060837
83	0x3d1873ea	0.03721992
84	0xbca58e32	-0.020209406
85	0xbd07d50b	-0.033162158
86	0x3c8f6c0d	0.017507577
87	0xbd0f400d	-0.034973193
88	0xbd730a43	-0.05933596
89	0xbd411fdb	-0.04714952
90	0xbd0c1b44	-0.03420569
91	0x3bbfea72	0.0058568055
92	0xbd5a5288	-0.053301364
93	0x3d58c619	0.052923296
94	0xbd0b43de	-0.03400027
95	0x3d2d5c29	0.04232422
96	0xbd82cfa5	-0.06387261
97	0xbd5008cb	-0.050789636
98	0xbd56fb25	-0.052485604
99	0x3d8a89a8	0.06764537
100	0x3d54faf9	0.05199716
101	0xbd45198a	-0.04812006
102	0xbd37f450	-0.04491073
103	0x3d3b0a97	0.045664396
104	0xbb0ccfc7	-0.002148615
105	0xbd22e0dc	-0.039765224
106	0xbcb242b0	-0.021760315
107	0xbc281abf	-0.010260283
108	0x3d2764e2	0.040867694
109	0x39a43d0c	0.00031326
110	0xbd238db1	-0.03993005
111	0xbced5759	-0.028972315
112	0x3d4f4eba	0.05061219
113	0xbcf039dc	-0.029324464
114	0x3ce758cf	0.02824059
115	0xbc60327b	-0.0136839105
116	0xbcfd849c	-0.030947022
117	0x3d240dd6	0.040052257
118	0x3cd400d0	0.025879294
119	0xbd1640fc	-0.036683068
120	0x3d86daad	0.06584678
121	0xbba0f229	-0.0049116802
122	0x3d5b012e	0.053467922
123	0xbd5698d8	-0.052391857
124	0x3d4cf395	0.050036985
125	0xbc62a436	-0.013833096
126	0x3cf80805	0.030277262
127	0xbd11fc90	-0.035641253
128	0x3c65242f	0.013985678
129	0xbd1193f0	-0.035541475
130	0x3d1c80e0	0.038208842
131	0x3b8b88c1	0.0042582457
132	0xbc010804	-0.007875446
133	0xbd123234	-0.03569241
134	0xbc59d222	-0.0132947285
135	0x3cf6d248	0.030129567
136	0x3c0e45b1	0.008683608
137	0xbcd13f26	-0.025542807
138	0xbd287622	-0.041128285
139	0xbd157e9f	-0.03649771
140	0xbcae4394	-0.021272458
141	0x3d61a247	0.0550864
142	0xbd4bf3de	-0.049793117
143	0xbd070343	-0.032962095
144	0xbd2a5bf7	-0.04159161
145	0xbcf7207b	-0.030166855
146	0x3d57f7f7	0.052726712
147	0xbbcacd00	-0.0061889887
148	0x3c90b709	0.017665403
149	0x3d4e632e	0.050387554
150	0xbc7eaa97	-0.0155436015
151	0x3cd32f2e	0.025779333
152	0x3d816ca0	0.06319547
153	0x3be2ab1e	0.0069173714
154	0x3c839f5e	0.016067203
155	0xbc860eae	-0.016364422
156	0x3cecea6a	0.028920371
157	0xbd5f8b17	-0.054576006
158	0x3d443a38	0.047907084
159	0x3b4ec133	0.0031548261
160	0x3d2d9ef7	0.04238793
161	0xbc9a4103	-0.018829828
162	0x3cf81f0a	0.030288238
163	0xbd5195c3	-0.051168215
164	0x3d0a6156	0.033784233
165	0xbd0bd5ab	-0.034139317
166	0x38d1a950	9.9974335e-05
167	0x3cb5afca	0.02217855
168	0xbb753aea	-0.0037419149
169	0xbc74687c	-0.014917489
170	0x3c08ef81	0.008357883
171	0xbc25a0e6	-0.010109162
172	0xbcb7dfb8	-0.022445545
173	0xbd63b8b9	-0.055596087
174	0xbbc8f9c4	-0.00613329
175	0x3cb1fa4f	0.021725802
176	0xbcc4d0e1	-0.024025382
177	0x3c3c99f0	0.011511311
178	0xbd1fae5c	-0.03898464
179	0x3c3219d8	0.010870419
180	0x3d5142cc	0.051089093
181	0xbd072a13	-0.03299911
182	0xbd1816e2	-0.037131198
183	0xbb98d378	-0.004663881
184	0xbbc0e736	-0.0058869375
185	0xbd85712c	-0.065157264
186	0x3d630f68	0.055434614
187	0x3cdaa59b	0.026690295
188	0xbd5ee470	-0.054417074
189	0xbd36a910	-0.044594824
190	0x3d8acc69	0.067772694
191	0x3cb6e1ac	0.022324406
192	0x3cae1dcd	0.021254444
193	0xbd393a67	-0.045221712
194	0x3d1cbe7b	0.038267594
195	0xbd0353fa	-0.03206251
196	0x3b6290a1	0.0034571069
197	0xbd31ab73	-0.043376397
198	0x3d39824f	0.045290288
199	0xbd1cf155	-0.03831609
200	0x3cbaae49	0.022788184
201	0xbc837ec5	-0.01605166
202	0x3c805ba2	0.015668694
203	0xba987ef6	-0.0011634517
204	0xbd66a619	-0.056310747
205	0xbd1b9bbe	-0.037990324
206	0xbd15b682	-0.036551006
207	0xbd0f0ad8	-0.03492245
208	0x3c6bc7b2	0.014390873
209	0x3c409b9b	0.011755849
210	0x3cebd6b4	0.028788902
211	0xbc94795a	-0.018124271
212	0xbc3e4790	-0.0116137415
213	0x3cdcce10	0.026953727
214	0xbcf29e7b	-0.029616585
215	0x3d2dacf4	0.04240127
216	0xba8db492	-0.001081126
217	0xbc7d6f06	-0.015468365
218	0x3cf66eb8	0.030082092
219	0xbc7d1aa6	-0.015448248
220	0x3d5864d8	0.052830547
221	0x3b4f21c2	0.0031605815
222	0xbb8cd07a	-0.0042973133
223	0x3d84aba0	0.06478047
224	0x3c42c204	0.011887077
225	0x3d6738c0	0.056450605
226	0x3d57e907	0.052712467
227	0x3d068ac9	0.0328472
228	0x3bc89136	0.006120826
229	0xbd47b59f	-0.04875719
230	0x3d0f1bbb	0.034938555
231	0x3d5f0caa	0.054455437
232	0x3d224abe	0.03962206
233	0xbcec4de1	-0.02884573
234	0x3d225a4e	0.039636903
235	0xbc35dcbb	-0.0110999895
236	0x3d22b44b	0.039722722
237	0xbd0ab288	-0.033861667
238	0x3cbca29e	0.02302676
239	0x3d016618	0.031591505
240	0xbd05e7df	-0.032691833
241	0x3c98268a	0.018573064
242	0x3d33480a	0.043769874
243	0xbd5831ee	-0.05278199
244	0xbb06a707	-0.0020546333
245	0xbb13941f	-0.0022518707
246	0x3ccee4d3	0.025255596
247	0xbd83d091	-0.06436265
248	0x3d46dbe4	0.048549548
249	0xbc161c38	-0.009162001
250	0x3cbce3ce	0.023057844
251	0xbd8af60d	-0.06785212
252	0xbd1f5386	-0.038898014
253	0xbcde7f09	-0.027160184
254	0xbd46696c	-0.048440382
255	0x3d23caed	0.039988447

head.weight f4 [1, 256]
0	0x3c2528c4	0.01008052
1	0xbcd667cc	-0.026172541
2	0xbd3d5307	-0.04622176
3	0xbd60587f	-0.054771896
4	0xbcb423eb	-0.021989783
5	0xbcbe00de	-0.023193773
6	0x3d3ea49a	0.046543695
7	0xbc4eb36b	-0.012616019
8	0x3b918c8c	0.0044418033
9	0x3c911f4c	0.017715119
10	0x3d5cfb2f	0.053950485
11	0xbd782231	-0.060579482
12	0x3d556d09	0.052105937
13	0xbd3e846e	-0.046513014
14	0xbd82003b	-0.063477
15	0xbd61ae18	-0.05509767
16	0x3d6c7134	0.057725146
17	0x3c7d0bf3	0.015444743
18	0xbd010c19	-0.031505678
19	0xbd4003c8	-0.046878606
20	0xbd272d48	-0.040814668
21	0xbd4e22e7	-0.050326254
22	0xbc80e833	-0.015735721
23	0xbd7530c3	-0.059860956
24	0x3d7c4a10	0.06159407
25	0xbd029f14	-0.03188999
26	0x3d1e4085	0.03863575
27	0x3d425831	0.047447387
28	0xbd7c8e8d	-0.061659385
29	0xbd687869	-0.056755457
30	0xbd742a96	-0.059610926
31	0xbcd6a57e	-0.02620196
32	0xbc879a40	-0.016553044
33	0x3beabae9	0.0071633947
34	0x3d3e5a9d	0.046473134
35	0x3d5f8227	0.054567482
36	0x3c2151d1	0.009846167
37	0xbc3b3e1c	-0.011428382
38	0x3cfd066f	0.030886857
39	0x3c9348ae	0.017978992
40	0xbd86b17b	-0.065768205
41	0x3d861f43	0.065489314
42	0xbd4e97d2	-0.050437756
43	0xbd84bc8d	-0.06481276
44	0xbd3d717f	-0.046250816
45	0xbd0476b1	-0.032339755
46	0x3d0dcb4d	0.03461771
47	0x3c99b61c	0.018763594
48	0xbc617558	-0.013760887
49	0xbd0d86f5	-0.034552533
50	0x3be29f95	0.0069159963
51	0xbc039644	-0.008031432
52	0x3c8d3607	0.017237676
53	0xbd23cb13	-0.03998859
54	0x3d4fb90f	0.050713595
55	0xbd252a43	-0.040323507
56	0x3c7722d8	0.015083991
57	0x3d036bcc	0.032085225
58	0x3d3f2921	0.046670083
59	0xbcbef64f	-0.023310808
60	0x3cbc5770	0.022990912
61	0x3c152bb9	0.009104663
62	0xbcaf6499	-0.021410273
63	0xbd3e4d03	-0.046460163
64	0x3c910ac6	0.017705332
65	0x3d2d9024	0.04237379
66	0xbd07b311	-0.033129755
67	0x3c649b3d	0.013953027
68	0x3cb89bb2	0.022535179
69	0x3ce69d33	0.02815113
70	0x3cd84c47	0.02640356
71	0xbd648f4f	-0.055800732
72	0x3c49c7cf	0.0123157045
73	0xbd345b03	-0.044032108
74	0x3d7a8f3d	0.06117176
75	0x3d5e374d	0.054251958
76	0x3d023bae	0.031795196
77	0x3c316ebe	0.010829626
78	0x3ca282b3	0.019837713
79	0x3c0e8a0d	0.008699906
80	0xbc976936	-0.018482786
81	0x3b891e0d	0.0041844905
82	0x3d23fa76	0.04003378
83	0x3cd0098d	0.02539518
84	0x3d0a2775	0.033729035
85	0xbc65bc2b	-0.0140219135
86	0xbcdd1c00	-0.02699089
87	0xbd2daa5e	-0.042398803
88	0x3c888d0d	0.01666882
89	0x3d4eeb0e	0.050517134
90	0xbcc485d1	-0.02398959
91	0x3cd385a5	0.025820563
92	0x3d3243e0	0.043521762
93	0xbc8e861c	-0.017397933
94	0x3d8411fe	0.06448744
95	0x3d5c3006	0.053756736
96	0x3c562101	0.013069392
97	0xbcdd1a79	-0.026990162
98	0xbc196ce0	-0.009364337
99	0xbd7a729e	-0.061144464
100	0xbcfbc621	-0.030734124
101	0x3ce026cb	0.027362248
102	0x3cc04b62	0.023473445
103	0xbc86f53e	-0.016474362
104	0x3d3a4e7e	0.045485012
105	0xbd57d98d	-0.052697707
106	0xbd2b96ba	-0.04189179
107	0xbd2714fb	-0.040791493
108	0xbd43e4ef	-0.04782575
109	0xbd4ac057	-0.049499836
110	0xbb42b738	-0.0029711258
111	0xbcf025d2	-0.02931491
112	0xbd18797e	-0.03722524
113	0xbd553093	-0.052048277
114	0xbd85c533	-0.065317534
115	0x3cda479c	0.026645474
116	0x3d056619	0.03256807
117	0x3d4053a9	0.046954785
118	0xbd734b2b	-0.059397858
119	0xbc9e835f	-0.019349752
120	0xbc07b9d1	-0.008284048
121	0xbcddff7d	-0.027099365
122	0x3d11780f	0.035514887
123	0xba111343	-0.0005534181
124	0xba9a2481	-0.0011760147
125	0x3d01a42f	0.03165072
126	0xbc923f86	-0.017852556
127	0xbd6bb8ad	-0.057549167
128	0x3cd41d8e	0.025892999
129	0x3d757819	0.059928987
130	0xbcb13f4a	-0.021636624
131	0x3cfe518b	0.031044742
132	0xbcebe3a9	-0.02879508
133	0x3c81e2cf	0.015855221
134	0xbd697f4a	-0.057006158
135	0xbce0fc07	-0.027463926
136	0x3d4bb9b3	0.049737643
137	0xbd6a7bf0	-0.057247102
138	0x3d70899a	0.058724977
139	0xbd73890f	-0.05945688
140	0x3cd16c42	0.025564317
141	0x3cc2ba69	0.023770528
142	0x3c0e46cd	0.008683872
143	0x3cade45b	0.021227052
144	0x3d27b220	0.040941358
145	0xbd6e8411	-0.058231417
146	0x3d0bc76d	0.034125734
147	0x3d5612e8	0.052264124
148	0xbd75985e	-0.05995976
149	0x3d232319	0.039828394
150	0x3c91fea2	0.017821614
151	0x3cbb70e7	0.022880984
152	0xbd6e4abf	-0.058176752
153	0x3c817e04	0.01580716
154	0xbd61c17f	-0.055116173
155	0xbca9008a	-0.02063014
156	0xbd5f86dc	-0.05457197
157	0x3c301133	0.010746288
158	0xbd772c2e	-0.060344867
159	0xbc4f5a87	-0.012655861
160	0x3cc5001c	0.024047904
161	0x3d05526b	0.032549303
162	0x3c274e2d	0.01021151
163	0xbd660c2b	-0.056163948
164	0xbbf262eb	-0.007397046
165	0xbd600b0f	-0.054698046
166	0x3d81ce71	0.06338204
167	0x3cd46b86	0.025930177
168	0xbc5313b6	-0.012883117
169	0xbc199ea6	-0.009376204
170	0xbd1001a0	-0.0351578
171	0x3b19d84f	0.0023474877
172	0x3d756120	0.05990708
173	0x3cf90748	0.03039898
174	0xbd10c23e	-0.035341494
175	0xbc80ccf5	-0.015722731
176	0x3d53f2d5	0.051745255
177	0x3cb7522b	0.022378048
178	0xbb347271	-0.0027534033
179	0x3d558ad3	0.052134346
180	0xbc89846b	-0.016786775
181	0xbd3de67c	-0.046362385
182	0xbd739543	-0.05946852
183	0x3d8af8ca	0.06785734
184	0xbd26fee2	-0.04077042
185	0x3c2b4efe	0.010455845
186	0xbcf9c648	-0.030490056
187	0x3cc83fcb	0.024444481
188	0x3d37ef71	0.044906083
189	0x3d4d95d5	0.05019172
190	0xbd53dcdf	-0.05172431
191	0x3d13621a	0.03598223
192	0x3d7e5b95	0.06209906
193	0x3d0a1364	0.0337099
194	0xbd254185	-0.040345687
195	0xbcb95f69	-0.022628503
196	0xbb4d2003	-0.0031299598
197	0xbd6c5dc8	-0.057706624
198	0xbd5df31d	-0.05418693
199	0xbd3b85ad	-0.04578178
200	0x3d20a273	0.039217424
201	0xbc814345	-0.015779147
202	0x3cb50bd2	0.022100363
203	0xbcc1d19f	-0.023659525
204	0x3d47b22d	0.048753906
205	0xbd735ef1	-0.059416715
206	0xbcb57485	-0.022150287
207	0x3bec5d38	0.007213261
208	0xbd5dbb1e	-0.054133527
209	0x3cd23558	0.025660202
210	0xbcc0c26c	-0.023530208
211	0x3d63e1a3	0.055635106
212	0x3c87dadd	0.016583854
213	0x3c8209fe	0.015873905
214	0xbd72ca80	-0.05927515
215	0x3d5917d6	0.053001247
216	0xbd5f62cc	-0.05453758
217	0xbc6edf1c	-0.014579561
218	0x3cd84fd4	0.026405253
219	0xbcc013df	-0.023446975
220	0x3d39b503	0.04533864
221	0x3d10ec4a	0.035381593
222	0x3c4b3bee	0.012404425
223	0xbd5cb3b9	-0.053882334
224	0xbd62c560	-0.055364013
225	0xbd2c6d85	-0.042096633
226	0xbc188fe8	-0.009311654
227	0xbd8910fa	-0.06692691
228	0xbce2ac56	-0.027670067
229	0xbd0dbcf7	-0.03460404
230	0x3ca8d658	0.02061002
231	0x3d61152a	0.054951824
232	0xbd34ad38	-0.044110507
233	0x3ca9cb4f	0.020726828
234	0xbd2d9afd	-0.042384136
235	0x3ce09d29	0.02741869
236	0x3d003ad4	0.031306103
237	0x3d66885e	0.056282394
238	0xbd551de5	-0.052030463
239	0x3d62df40	0.05538869
240	0x3d054010	0.032531798
241	0x3adc5558	0.0016810102
242	0xbd59d3d0	-0.053180516
243	0x3d7d36b1	0.061819736
244	0xbcf73837	-0.030178173
245	0xbd693dea	-0.05694381
246	0x3c1c99b2	0.009558128
247	0x3d2dc5a8	0.042424828
248	0xbd871e33	-0.06597557
249	0xbd3696f0	-0.04457754
250	0x3c90660d	0.017626787
251	0x3bef6d3d	0.0073067234
252	0x3d4653f9	0.048419926
253	0xbd341588	-0.043965846
254	0x3d1ce05d	0.038299907
255	0xbb7c6daf	-0.0038517525
