checkpoints/deepcdf_MLP.pt (torch, 393264 bytes, 6 tensors)

biases f4 [11061]
-0.006388576 -0.0063925507 -0.0063925507 -0.006392857 -0.006392857 -0.006392857 -0.006392857 -0.006392857
-0.0063931635 -0.0063931635 -0.0063931635 -0.0063931635 -0.0063931635 -0.0063931635 -0.0063931635 -0.0063931635
-0.0063931635 -0.0063931635 -0.0063931635 -0.0063931635 -0.0063931635 -0.0063931635 -0.0063934587 -0.0063934587
-0.0063934056 -0.0063934056 -0.0063934056 -0.0063934056 -0.0063934056 -0.0063934056 -0.0063934056 -0.0063934056
-0.0063934056 -0.0063934056 -0.0063934056 -0.0063934056 -0.0063934056 -0.0063934056 -0.0063933665 -0.0063933665
-0.0063933665 -0.0063933665 -0.0063933665 -0.0063933665 -0.0063933474 -0.0063933474 -0.0063933474 -0.0063933474
-0.0063933474 -0.0063933474 -0.006393341 -0.006393341 -0.006393341 -0.006393341 -0.0063933264 -0.0063933264
-0.0063933264 -0.0063933264 -0.0063933264 -0.0063933264 -0.006393564 -0.0063934675 -0.0063934675 -0.0063934675
-0.0063934675 -0.0063934675 -0.0063934675 -0.0063934675 -0.0063934675 -0.0063931793 -0.0063931793 -0.0063931793
-0.0063931793 -0.0063931793 -0.0063931793 -0.0063931793 -0.006393506 -0.006393565 -0.006393565 -0.006393565
-0.006393565 -0.006393565 -0.006393565 -0.006393565 -0.006393565 -0.006393565 -0.006393565 -0.006393565
-0.006393565 -0.006393565 -0.006393565 -0.006393565 -0.006393565 -0.006393565 -0.006393565 -0.006393565
-0.006393565 -0.006393565 -0.006393565 -0.006393565 -0.006393565 -0.006393565 -0.0063934117 -0.0063934117
-0.0063934117 -0.0063934117 -0.0063934117 -0.0063934117 -0.0063934117 -0.0063934117 -0.0063934117 -0.0063934117
-0.0063934117 -0.0063934117 -0.0063934117 -0.0063934117 -0.0063934117 -0.0063934117 -0.0063934117 -0.0063934117
-0.0063934117 -0.0063934117 -0.0063934117 -0.0063934117 -0.0063934117 -0.006393379 -0.006393379 -0.0063933404
-0.0063933404 -0.0063933404 -0.0063933404 -0.0063932203 -0.0063932203 -0.0063932296 -0.0063932296 -0.0063932296
-0.0063930093 -0.0063930093 -0.0063930093 -0.0063930093 -0.0063930093 -0.0063930093 -0.0063930093 -0.0063930093
-0.0063930093 -0.0063930093 -0.0063930093 -0.0063931453 -0.0063931453 -0.0063931453 -0.0063931453 -0.0063931453
-0.0063931453 -0.0063931453 -0.0063931453 -0.0063931453 -0.0063931453 -0.0063931453 -0.0063931453 -0.0063931267
-0.0063931267 -0.0063931267 -0.0063931267 -0.0063931267 -0.0063931267 -0.0063931267 -0.0063931267 -0.0063931267
-0.0063931267 -0.0063931267 -0.0063929525 -0.0063929525 -0.0063929525 -0.0063929525 -0.0063929525 -0.006392934
-0.006392934 -0.006392934 -0.006392934 -0.006392934 -0.0063932007 -0.0063931476 -0.0063931476 -0.0063931476
-0.0063931476 -0.0063931476 -0.0063931756 -0.0063931756 -0.00639277 -0.00639277 -0.00639277 -0.00639277
-0.00639277 -0.00639277 -0.00639277 -0.00639277 -0.00639277 -0.00639277 -0.00639277 -0.00639277
-0.00639277 -0.00639277 -0.00639277 -0.006392916 -0.006392916 -0.006393061 -0.006393061 -0.006393061
-0.006393061 -0.006393061 -0.006393061 -0.006393061 -0.006393061 -0.006393061 -0.006393061 -0.006393061
-0.006393061 -0.006393061 -0.006393061 -0.006393061 -0.006393061 -0.006393061 -0.006393061 -0.006393061
-0.006393061 -0.006393061 -0.006393061 -0.006393061 -0.006393061 -0.006393061 -0.006393061 -0.006393061
-0.006393061 -0.0063932454 -0.0063933646 -0.0063933646 -0.0063934214 -0.0063934214 -0.0063934214 -0.0063934214
-0.0063934214 -0.0063934214 -0.00639355 -0.00639355 -0.00639355 -0.00639355 -0.00639355 -0.00639355
-0.0063935732 -0.0063935732 -0.0063935732 -0.0063935732 -0.0063935732 -0.0063935732 -0.006393654 -0.006393654
00000000: 4257 d1bb 9a78 d1bb 9a78 d1bb 2c7b d1bb
00000010: 2c7b d1bb 2c7b d1bb 2c7b d1bb 2c7b d1bb
00000020: be7d d1bb be7d d1bb be7d d1bb be7d d1bb
00000030: be7d d1bb be7d d1bb be7d d1bb be7d d1bb
00000040: be7d d1bb be7d d1bb be7d d1bb be7d d1bb
00000050: be7d d1bb be7d d1bb 3880 d1bb 3880 d1bb
00000060: c67f d1bb c67f d1bb c67f d1bb c67f d1bb
00000070: c67f d1bb c67f d1bb c67f d1bb c67f d1bb
00000080: c67f d1bb c67f d1bb c67f d1bb c67f d1bb
00000090: c67f d1bb c67f d1bb 727f d1bb 727f d1bb
000000a0: 727f d1bb 727f d1bb 727f d1bb 727f d1bb
000000b0: 497f d1bb 497f d1bb 497f d1bb 497f d1bb
000000c0: 497f d1bb 497f d1bb 3b7f d1bb 3b7f d1bb
000000d0: 3b7f d1bb 3b7f d1bb 1c7f d1bb 1c7f d1bb
000000e0: 1c7f d1bb 1c7f d1bb 1c7f d1bb 1c7f d1bb
000000f0: 1a81 d1bb 4b80 d1bb 4b80 d1bb 4b80 d1bb
00000100: 4b80 d1bb 4b80 d1bb 4b80 d1bb 4b80 d1bb
00000110: 4b80 d1bb e07d d1bb e07d d1bb e07d d1bb
00000120: e07d d1bb e07d d1bb e07d d1bb e07d d1bb
00000130: 9e80 d1bb 1c81 d1bb 1c81 d1bb 1c81 d1bb
00000140: 1c81 d1bb 1c81 d1bb 1c81 d1bb 1c81 d1bb
00000150: 1c81 d1bb 1c81 d1bb 1c81 d1bb 1c81 d1bb
00000160: 1c81 d1bb 1c81 d1bb 1c81 d1bb 1c81 d1bb
00000170: 1c81 d1bb 1c81 d1bb 1c81 d1bb 1c81 d1bb
00000180: 1c81 d1bb 1c81 d1bb 1c81 d1bb 1c81 d1bb
00000190: 1c81 d1bb 1c81 d1bb d37f d1bb d37f d1bb
000001a0: d37f d1bb d37f d1bb d37f d1bb d37f d1bb
000001b0: d37f d1bb d37f d1bb d37f d1bb d37f d1bb
000001c0: d37f d1bb d37f d1bb d37f d1bb d37f d1bb
000001d0: d37f d1bb d37f d1bb d37f d1bb d37f d1bb
000001e0: d37f d1bb d37f d1bb d37f d1bb d37f d1bb
000001f0: d37f d1bb 8d7f d1bb 8d7f d1bb 3a7f d1bb
00000200: 3a7f d1bb 3a7f d1bb 3a7f d1bb 387e d1bb
00000210: 387e d1bb 4c7e d1bb 4c7e d1bb 4c7e d1bb
00000220: 737c d1bb 737c d1bb 737c d1bb 737c d1bb
00000230: 737c d1bb 737c d1bb 737c d1bb 737c d1bb
00000240: 737c d1bb 737c d1bb 737c d1bb 977d d1bb
00000250: 977d d1bb 977d d1bb 977d d1bb 977d d1bb
00000260: 977d d1bb 977d d1bb 977d d1bb 977d d1bb
00000270: 977d d1bb 977d d1bb 977d d1bb 6f7d d1bb
00000280: 6f7d d1bb 6f7d d1bb 6f7d d1bb 6f7d d1bb
00000290: 6f7d d1bb 6f7d d1bb 6f7d d1bb 6f7d d1bb
000002a0: 6f7d d1bb 6f7d d1bb f97b d1bb f97b d1bb
000002b0: f97b d1bb f97b d1bb f97b d1bb d17b d1bb
000002c0: d17b d1bb d17b d1bb d17b d1bb d17b d1bb
000002d0: 0e7e d1bb 9c7d d1bb 9c7d d1bb 9c7d d1bb
000002e0: 9c7d d1bb 9c7d d1bb d87d d1bb d87d d1bb
000002f0: 717a d1bb 717a d1bb 717a d1bb 717a d1bb
00000300: 717a d1bb 717a d1bb 717a d1bb 717a d1bb
00000310: 717a d1bb 717a d1bb 717a d1bb 717a d1bb
00000320: 717a d1bb 717a d1bb 717a d1bb ab7b d1bb
00000330: ab7b d1bb e27c d1bb e27c d1bb e27c d1bb
00000340: e27c d1bb e27c d1bb e27c d1bb e27c d1bb
00000350: e27c d1bb e27c d1bb e27c d1bb e27c d1bb
00000360: e27c d1bb e27c d1bb e27c d1bb e27c d1bb
00000370: e27c d1bb e27c d1bb e27c d1bb e27c d1bb
00000380: e27c d1bb e27c d1bb e27c d1bb e27c d1bb
00000390: e27c d1bb e27c d1bb e27c d1bb e27c d1bb
000003a0: e27c d1bb 6e7e d1bb 6e7f d1bb 6e7f d1bb
000003b0: e87f d1bb e87f d1bb e87f d1bb e87f d1bb
000003c0: e87f d1bb e87f d1bb fc80 d1bb fc80 d1bb
000003d0: fc80 d1bb fc80 d1bb fc80 d1bb fc80 d1bb
000003e0: 2e81 d1bb 2e81 d1bb 2e81 d1bb 2e81 d1bb
000003f0: 2e81 d1bb 2e81 d1bb db81 d1bb db81 d1bb

encoder.network.0.weight f4 [256, 79]
-0.11338899 0.058857504 -0.07957677 0.07178222 0.031887405 -0.04776567 0.08748772 0.0951805
-0.112707816 0.022411224 0.003178174 0.015465863 -0.07498753 -0.030431591 -0.09953169 -0.032355722
0.070861965 -0.0759048 0.020428132 -0.0068221763 -0.06880228 -0.0867574 0.026892425 -0.0072110835
-0.09524498 0.105186425 -0.077092424 0.011256043 -0.06395232 -0.1087044 0.093672805 0.029403111
-0.033827815 -0.052115746 -0.02459027 -0.018981526 0.029417515 -0.057608217 0.04627863 -0.023883946
0.076542474 -0.056288548 0.030965203 0.07858537 0.0150413215 0.032439478 0.013297162 -0.09873346
0.0957916 0.013228849 0.064337045 -0.009874392 0.05500983 -0.021215303 0.039946347 0.05077605
-0.03869276 -0.026859026 -0.051051304 0.023772363 -0.009093608 -0.007127707 0.11368483 0.05907618
0.038684994 -0.046127003 0.037727877 0.104458034 0.10899142 -0.10457031 0.018183336 0.048255373
-0.011696653 -0.08501269 0.03179573 0.0077248206 -0.09841838 -0.07849753 -0.042493895 -0.06498183
-0.011995001 -0.015926026 -0.047080047 0.007494896 -0.065426536 0.040731736 0.09412106 0.09540945
-0.04272785 -0.08660689 0.10779363 0.043909367 -0.059965186 -0.06818435 0.044136796 -0.06553503
0.07730492 0.023773137 0.04466376 0.036998518 -0.06453958 -0.073784016 -0.059524335 0.09211558
0.09884516 -0.09832012 0.010110806 -0.04495754 0.01222464 -0.1020012 -0.10308648 -0.0882896
-0.0706864 0.050569136 0.04978867 -0.09564985 0.022608198 -0.09054152 -0.031104498 -0.073953174
0.080911495 0.106786676 0.116952464 -0.10248362 -0.0067300396 0.09183288 -0.0953098 -0.092400655
-0.09247282 -0.080904156 -0.03262865 -0.07558283 -0.08353058 -0.022553172 0.030831741 -0.0035519656
0.09431057 -0.009883542 0.025016388 -0.026729837 -0.00856949 0.10564292 0.071174376 -0.10066165
-0.026768835 -0.10054223 -0.04361413 0.044606585 0.008697368 -0.06863069 0.060704067 0.020349609
-0.015463784 -0.06414393 -0.082580455 0.023441346 0.071222015 -0.1049283 0.027394652 -0.04385724
-0.019051809 0.04834282 0.08269132 0.03687454 0.06542128 0.07755062 0.02174648 -0.034830995
0.07635981 -0.06647778 0.0037383244 -0.09541835 -0.10089604 0.096363716 0.108539954 -0.056507044
0.10028655 0.092014484 0.10316529 0.08609306 -0.0030125375 -0.10865721 0.03829706 -0.008143456
-0.06448045 0.0277168 -0.05266254 -0.0018692386 0.037861466 0.09363164 -0.04383855 -0.0019000978
-0.006809525 0.0690166 0.005787992 0.06922515 -0.0403862 0.0702995 0.005738317 -0.09122206
0.009032287 -0.008761757 -0.056057695 0.0760992 0.007662117 0.031352542 -0.030830616 -0.0124805905
0.06401559 -0.013668413 -0.084214196 0.03934564 0.07300385 0.042283617 -0.07528762 0.075248115
0.09740897 0.11046047 -0.04411128 -0.06490737 -0.03636203 0.043857384 0.044140223 0.09488415
0.04926214 0.03911134 0.09474556 0.10529527 -0.037397806 0.038053934 0.041482195 0.06760159
0.0145915365 0.033093575 -0.09304714 0.09921499 -0.012218159 -0.08087434 -0.017825492 -0.07724739
0.08546173 -0.05042912 0.040489253 0.068384334 0.013355441 -0.085293725 -0.0002860237 0.06376917
0.01960222 0.001398698 -0.082703285 -0.107863806 0.09401866 0.1012366 0.020989902 -0.078795604
00000000: 7d38 e8bd 9114 713d 25f9 a2bd 8e02 933d
00000010: 5e9c 023d efa5 43bd c32c b33d feed c23d
00000020: 5bd3 e6bd be97 b73c e948 503b 8864 7d3c
00000030: 1093 99bd ac4b f9bc 45d7 cbbd 6f87 04bd
00000040: 1420 913d fa73 9bbd e658 a73c 908c dfbb
00000050: 36e8 8cbd ddad b1bd 814d dc3c f44a ecbb
00000060: cd0f c3bd fb6b d73d a2e2 9dbd 446b 383c
00000070: 6ff9 82bd 6aa0 debd 87d7 bf3d cbde f03c
00000080: 098f 0abd 5277 55bd 8971 c9bc 257f 9bbc
00000090: 00fd f03c 98f6 6bbd a98e 3d3d 44a8 c3bc
000000a0: 4dc2 9c3d d28e 66bd bdaa fd3c 5ef1 a03d
000000b0: e06f 763c 42df 043d 57dc 593c c534 cabd
000000c0: 632e c43d d0bd 583c 24c3 833d 34c8 21bc
000000d0: fd51 613d b7cb adbc c89e 233d 8cfa 4f3d
000000e0: 4d7c 1ebd 7607 dcbc 2c1b 51bd 42be c23c
000000f0: 5bfd 14bc 8a8f e9bb 98d3 e83d ddf9 713d
00000100: 2874 1e3d abef 3cbd 8c88 1a3d 18ee d53d
00000110: e536 df3d f528 d6bd 38f5 943c 6da7 453d
00000120: 52a3 3fbc 221b aebd 3d3c 023d 7e20 fd3b
00000130: 938f c9bd 50c3 a0bd 140e 2ebd 3215 85bd
00000140: ae86 44bc 4c77 82bc 02d7 40bd bf97 f53b
00000150: 59fe 85bd 52d6 263d 8bc2 c03d 0866 c33d
00000160: 6603 2fbd f45e b1bd e8c2 dc3d 4fda 333d
00000170: 0e9e 75bd 3da4 8bbd c9c8 343d 3b37 86bd
00000180: 0b52 9e3d e2bf c23c 59f1 363d c28b 173d
00000190: 542d 84bd 131c 97bd cacf 73bd 18a7 bc3d
000001a0: 556f ca3d 0f5c c9bd cba7 253c 6625 38bd
000001b0: db49 483c 01e6 d0bd 011f d3bd 2ed1 b4bd
000001c0: 08c4 90bd 9521 4f3d 34ef 4b3d 12e4 c3bd
000001d0: d434 b93c d56d b9bd dcce febc c374 97bd
000001e0: edb4 a53d f9b2 da3d c684 ef3d efe2 d1bd
000001f0: aa87 dcbb e112 bc3d c931 c3bd 8e3c bdbd
00000200: 6462 bdbd 14b1 a5bd 9fa5 05bd 2ccb 9abd
00000210: 1512 abbd 6ec1 b8bc d992 fc3c 18c8 68bb
00000220: e625 c13d 94ee 21bc 2bef cc3c 88f8 dabc
00000230: 0c67 0cbc 515b d83d dfc3 913d b227 cebd
00000240: 514a dbbc 16e9 cdbd bba4 32bd 65b5 363d
00000250: 687f 0e3c 3f8e 8cbd d4a4 783d 39b4 a63c
00000260: d05b 7dbc e55d 83bd f11f a9bd 1108 c03c
00000270: d9dc 913d a6e4 d6bd c06a e03c a6a3 33bd
00000280: 8a12 9cbc 1f03 463d 115a a93d c209 173d
00000290: 98fb 853d dcd2 9e3d ad25 b23c f2aa 0ebd
000002a0: 8862 9c3d 8125 88bd adfe 743b b26a c3bd
000002b0: 95a2 cebd 575a c53d 324a de3d ee73 67bd
000002c0: 0963 cd3d 1772 bc3d 5348 d33d 8f51 b03d
000002d0: fe6d 45bb ac87 debd 61dd 1c3d 216c 05bc
000002e0: 530e 84bd 580e e33c adb4 57bd 3d01 f5ba
000002f0: a014 1b3d f2c1 bf3d 0d90 33bd b40c f9ba
00000300: 7022 dfbb 9358 8d3d 32a9 bd3b eac5 8d3d
00000310: 006c 25bd 2ff9 8f3d 7e08 bc3b a2d2 babd
00000320: 28fc 133c 798d 0fbc c19c 65bd e6d9 9b3d
00000330: 7f12 fb3b 866b 003d 7d90 fcbc 647b 4cbc
00000340: 9b1a 833d 7bf1 5fbc 7e78 acbd e528 213d
00000350: 0b83 953d 9631 2d3d 6530 9abd af1b 9a3d
00000360: 5b7e c73d 1939 e23d 08ae 34bd 28ee 84bd
00000370: 5af0 14bd cda3 333d 61cc 343d 9f52 c23d
00000380: 19c7 493d 3633 203d f609 c23d 0ca5 d73d
00000390: 712e 19bd 71de 1b3d 3ce9 293d b472 8a3d
000003a0: 5711 6f3c 218d 073d 808f bebd 3b31 cb3d
000003b0: ac2e 48bc 72a1 a5bd c406 92bc e133 9ebd
000003c0: 8f06 af3d c48e 4ebd 0fd8 253d 160d 8c3d
000003d0: c8d0 5a3c 7aae aebd 73f5 95b9 6999 823d
000003e0: d694 a03c 8454 b73a 5760 a9bd b3e7 dcbd
000003f0: db8c c03d 2255 cf3d 04f3 ab3c 975f a1bd

encoder.network.0.bias f4 [256]
0.055504937 0.037859783 0.05013811 0.009919888 -0.047364432 0.040873237 -0.01481358 0.038775213
-0.036694705 -0.07776622 -0.04138657 0.029708225 0.11238702 0.08504248 0.04216282 -0.07152593
-0.09876362 -0.05641019 0.025161332 0.091200955 0.04265362 -0.014477003 -0.03794918 0.019195756
-0.02136808 -0.07017319 0.042776152 -0.0028891042 0.10365713 0.06004592 0.03968069 -0.06956579
0.08080687 -0.020969499 0.002855511 -0.025606172 -0.11074156 -0.09586807 0.059617624 0.07127114
-0.027856039 -0.06125863 -0.08619965 -0.07004864 -0.08269122 0.07943347 0.030787343 0.08819977
0.10131889 0.028909799 -0.091596834 0.11056126 0.07035117 0.069493085 -0.020356981 -0.012049076
0.089774564 0.076293916 -0.0795781 -0.008129543 0.0083326595 -0.026443316 0.013004132 -0.0014372193
-0.05042483 -0.053490013 0.0034697559 0.11122694 -0.031377356 -0.04532613 0.0075682504 -0.047980748
0.10632828 -0.032630417 0.09756594 -0.06251404 -0.03825304 0.101044476 -0.08950625 -0.03268194
0.073695645 -0.104544654 -0.010271595 -0.10455921 -0.026510002 0.033239435 -0.030939084 -0.06221916
0.05905743 0.015860848 0.010866233 -0.07077294 0.022804854 0.11473694 -0.052913737 -0.108742744
-0.014626808 0.09641045 0.04189119 0.10835561 -0.055784512 -0.06974285 -0.09615506 -0.07213819
0.071585946 0.0565543 -0.02687305 0.08379574 0.06841015 0.040005226 0.084494844 0.09206161
0.016685868 -0.04451709 0.035858843 0.087778375 -0.052982338 0.041710004 -0.09966129 0.013936868
-0.08770595 0.080289334 0.019131085 -0.011237803 -0.0035302185 -0.01950463 -0.07127764 0.0814174
-0.063932344 0.058688488 4.262387e-05 -0.054056365 -0.09862573 0.097736284 0.10820781 -0.079993844
-0.09302672 0.0598305 -0.07418947 0.06943285 -0.07177116 0.018995518 -0.005206765 -0.032833368
-0.0044247517 0.09605672 -0.027646447 -0.05148814 0.0872979 -0.03191403 -0.0338471 0.112856515
-0.10302338 0.09014989 -0.04282474 0.021920627 -0.05838634 0.035712384 0.0024900017 -0.09036167
0.025871513 0.024965249 0.1031256 0.055033296 -0.086976334 0.0022012973 -0.064222805 0.020912759
0.07565995 0.09164059 0.08600817 -0.06372401 0.014842587 -0.038163863 -0.04680334 -0.07143887
-0.06972972 0.004692688 0.023008488 0.046254776 0.05732007 -0.11255603 0.01656891 -0.037118353
-0.107904196 0.10274904 -0.037015866 -0.106056325 -0.010859974 0.11175813 0.06805085 0.049456593
-0.105990864 -0.062259693 0.057934426 -0.0780803 -0.10551231 0.08561151 0.06618772 -0.088145144
-0.08264733 0.04272536 0.09129931 0.06381954 0.08651502 -0.09170622 0.030410621 0.07484716
0.042370528 0.0013044873 0.11382315 0.05197074 0.04041304 0.030094525 -0.020429732 -0.09297335
0.043930765 -0.06917507 0.01993199 -0.038648397 0.046371333 0.08832942 -0.06507321 0.07380707
-0.02601725 -0.0053905468 -0.10515426 0.10116111 -0.040963173 -0.10160386 0.00051772495 0.0047863326
0.07456246 0.06598867 -0.06795485 -0.08594968 -0.044402525 -0.06911354 0.105505124 -0.041938897
-0.0073629604 0.034098435 0.030508792 0.042300414 0.015516047 -0.08942926 -0.045766056 -0.09293776
-0.10364476 -0.052144445 -0.07577506 -0.055273738 0.08108524 0.01063915 -0.06037561 -0.058173973
00000000: 2559 633d dc12 1b3d 9e5d 4d3d 0787 223c
00000010: 3501 42bd b26a 273d a8b4 72bc c2d2 1e3d
00000020: 304d 16bd e543 9fbd f784 29bd aa5e f33c
00000030: 2a2b e63d c02a ae3d ecb2 2c3d 307c 92bd
00000040: 9544 cabd 5f0e 67bd 231f ce3c 91c7 ba3d
00000050: 90b5 2e3d f430 6dbc 9970 1bbd 6b40 9d3c
00000060: 1d0c afbc f6b6 8fbd 0c36 2f3d 2057 3dbb
00000070: 304a d43d b6f2 753d 3888 223d 8278 8ebd
00000080: 127e a53d 3ac8 abbc 8623 3b3b 09c4 d1bc
00000090: 79cc e2bd 7b56 c4bd 9c31 743d 9af6 913d
000000a0: 5932 e4bc 54ea 7abd 7189 b0bd a975 8fbd
000000b0: 045a a9bd 04ae a23d bd35 fc3c 15a2 b43d
000000c0: 4780 cf3d 3ed4 ec3c 1f97 bbbd f16d e23d
000000d0: 4614 903d 6452 8e3d afc3 a6bc 7d69 45bc
000000e0: badb b73d fc3f 9c3d d8f9 a2bd c631 05bc
000000f0: b585 083c a79f d8bc 480f 553c 1461 bcba
00000100: 448a 4ebd 5818 5bbd d864 633b f3ca e33d
00000110: 8b85 00bd e4a7 39bd 16ff f73b 7687 44bd
00000120: a4c2 d93d 79a7 05bd a7d0 c73d 5c07 80bd
00000130: 38af 1cbd 68f0 ce3d 0e4f b7bd 7fdd 05bd
00000140: beed 963d 821b d6bd 314a 28bc 2423 d6bd
00000150: 812b d9bc 1326 083d f673 fdbc 85d9 7ebd
00000160: 34e6 713d 9cee 813c 4908 323c 67f1 90bd
00000170: 3fd1 ba3c 33fb ea3d 13bc 58bd 84b4 debd
00000180: 48a5 6fbc d872 c53d 1996 2b3d 8ce9 dd3d
00000190: 4d7e 64bd 57d5 8ebd f2ec c4bd 30bd 93bd
000001a0: a79b 923d 7ba5 673d df24 dcbc 1a9d ab3d
000001b0: 9f1a 8c3d 85dc 233d a20b ad3d cc8a bc3d
000001c0: cdb0 883c 8d57 36bd b9e0 123d 26c5 b33d
000001d0: 0204 59bd 1cd8 2a3d 381b ccbd 7657 643c
000001e0: 2d9f b3bd bc6e a43d cbb8 9c3c c31e 38bc
000001f0: 3d5b 67bb 2cc8 9fbc 03fa 91bd 2abe a63d
00000200: f6ee 82bd 5763 703d 08c7 3238 356a 5dbd
00000210: 49fc c9bd f629 c83d 0e9c dd3d d0d3 a3bd
00000220: cb84 bebd d410 753d a6f0 97bd cf32 8e3d
00000230: c2fc 92bd 7d9c 9b3c 839d aabb 487c 06bd
00000240: 82fd 90bb 63b9 c43d cd7a e2bc 3ae5 52bd
00000250: 3ec9 b23d 49b8 02bd 42a3 0abd 5121 e73d
00000260: ecfd d2bd 81a0 b83d ff68 2fbd e392 b33c
00000270: 8426 6fbd 2647 123d 4c2f 233b 8a0f b9bd
00000280: 7ff0 d33c ec83 cc3c 8433 d33d 986a 613d
00000290: a620 b2bd a443 103b 3f87 83bd 3c51 ab3c
000002a0: 9bf3 9a3d 10ae bb3d 0d25 b03d bc81 82bd
000002b0: 522e 733c b651 1cbd dcb4 3fbd 8b4e 92bd
000002c0: 75ce 8ebd 1fc5 993b 4c7c bc3c a675 3d3d
000002d0: 73c8 6a3d c783 e6bd 86bb 873c 6a09 18bd
000002e0: e0fc dcbd 176e d23d f39d 17bd 0f34 d9bd
000002f0: 08ee 31bc 72e1 e43d 3e5e 8b3d ff92 4a3d
00000300: bd11 d9bd 0504 7fbd a64c 6d3d 90e8 9fbd
00000310: d716 d8bd 1655 af3d 6d8d 873d 7185 b4bd
00000320: 0143 a9bd c900 2f3d 22fb ba3d d2b3 823d
00000330: c92e b13d 78d0 bbbd b21f f93c 7849 993d
00000340: b88c 2d3d 55fb aa3a 1d1c e93d 45df 543d
00000350: 2588 253d cb88 f63c 415c a7bc d068 bebd
00000360: bff0 333d a9ab 8dbd 6a48 a33c c84d 1ebd
00000370: deef 3d3d 0ee6 b43d 1a45 85bd 2928 973d
00000380: 2122 d5bc 2fa3 b0bb 1e5b d7bd 8e2d cf3d
00000390: 00c9 27bd af15 d0bd efb7 073a abd6 9c3b
000003a0: 34b4 983d 1125 873d ea2b 8bbd 6306 b0bd
000003b0: 6cdf 35bd 668b 8dbd 1213 d83d 1fc8 2bbd
000003c0: fd44 f1bb cdaa 0b3d 93ed f93c 3343 2d3d
000003d0: 0537 7e3c b026 b7bd 3075 3bbd 2756 bebd
000003e0: b443 d4bd 6a95 55bd f42f 9bbd b766 62bd
000003f0: 0510 a63d d44f 2e3c 6a4c 77bd d547 6ebd

encoder.network.3.weight f4 [256, 256]
-0.029094614 0.051372956 -0.050673913 -0.057107273 0.0056430628 -0.020246018 0.02522773 0.0070683258
-0.040242903 -0.026941927 0.017195178 -0.025602004 -0.0036857584 0.047621995 0.029829457 -0.063570745
0.053570885 -0.054172892 0.062164247 -0.042233825 -0.0074230074 -0.045164384 0.019999059 0.016827589
0.006409506 -0.04850366 -0.0100274375 0.049829025 -0.03873026 -0.005142026 -0.055122856 0.05604846
-0.019024475 -0.039740376 -0.023241887 -0.036824387 0.05647746 -0.057932384 0.048488606 -0.022891762
-0.019706152 -0.023750503 -0.052421957 -0.05317987 0.025492767 -0.061718244 -0.0375674 -0.003358501
0.028260225 -0.055068713 -0.06284897 0.050036017 0.036351375 0.05510749 -0.013987034 -0.04017838
-0.03669683 -0.013628059 -0.013150731 0.030559655 0.041252505 -0.008105275 -0.020249795 -0.061532054
-0.0429751 -0.045559745 0.046642095 0.04811448 0.05259087 -0.01985208 -0.055296805 0.030655634
-0.03308544 -0.057098817 -0.0561498 0.03493119 -0.055939108 -0.03673247 -0.024467707 0.03549476
-0.02140726 -0.0599776 0.040165972 -0.028078359 -0.050777376 -0.015376204 -0.024051359 0.013495946
-0.000932661 -0.058228612 0.032932226 0.035644807 -0.021843728 -0.05400722 0.04370357 -0.02279309
-0.04197003 -0.01530435 -0.0066332524 -0.049956076 -0.02371839 -0.024020279 0.03733647 -0.026764069
-0.021889225 -0.033133596 -0.041602965 0.02609562 -0.011894334 -0.0050345534 0.017550515 0.049282577
0.059349764 -0.02169678 0.045932423 0.008520406 0.028920418 -0.02895832 -0.008855296 -0.014205851
0.024567537 0.011543786 -0.026926061 -0.016465267 -0.01846689 0.0396716 -0.020906555 -0.041219827
0.033386674 0.0021913692 -0.013565939 -0.038961463 0.06008959 0.013579395 0.030922158 -0.038363703
-0.015013449 -0.011275217 0.048585244 0.01552497 0.036189 0.03288685 0.004002006 0.005703483
0.03902666 -0.0047264593 -0.041907273 0.037307266 0.04133507 -0.035138834 0.034342926 0.036144122
-0.045498375 -0.011291555 -0.024631357 0.05461284 0.010607042 -0.0474571 0.006271016 -0.036153227
-0.050974604 -0.017377093 0.054171387 -0.010273764 0.04872723 -0.043563645 -0.03525403 -0.0069670323
0.038660143 0.023773307 0.030728363 0.04533693 -0.007870484 0.001048165 -0.006889981 -0.057730377
-0.05721891 0.03323892 0.043753356 0.040987123 -0.04994281 0.0181773 0.04073641 -0.04018205
-0.04927061 0.058684256 -0.028377732 0.031498056 0.049986046 -0.061512932 -0.006944625 0.024989782
0.047991194 0.0193518 -0.022921506 0.051982332 -0.015474975 0.025299182 0.04041764 0.04869266
-0.023092898 -0.041347146 -0.048131324 -0.055363115 0.022170538 0.020679189 -0.055650927 0.022477405
0.005539473 0.03059281 0.022645732 -0.061816987 -0.029363802 -0.011967379 0.06486742 -0.056041576
-0.011350513 0.040909797 0.027738372 -0.008119323 -0.046556484 0.048370495 0.04754947 0.010909087
-0.015393234 0.032184083 -0.04449154 -0.022798922 -0.011342944 0.006750317 0.0419425 0.051500276
-0.007355372 -0.0041825855 0.016789723 -0.0070046335 -0.025129441 0.0410239 -0.047983408 -0.036905706
-0.050401878 0.040304955 -0.06113522 0.04794352 -0.036605805 0.016329719 -0.022257382 -0.053230394
0.039468147 -0.030377451 -0.034434598 -0.04951843 0.015173969 0.0531166 -0.044211164 -0.026985787
00000000: d457 eebc 736c 523d 738f 4fbd 51e9 69bd
00000010: 71e9 b83b fada a5bc 62aa ce3c 6a9d e73b
00000020: bed5 24bd 51b5 dcbc e7dc 8c3c 4bbb d1bc
00000030: c48c 71bb 480f 433d e85c f43c 6131 82bd
00000040: 256d 5b3d 65e4 5dbd f09f 7e3d 60fd 2cbd
00000050: b33c f3bb 4afe 38bd 11d5 a33c 03da 893c
00000060: d506 d23b c6ab 46bd 1f4a 24bc 8519 4c3d
00000070: 9fa3 1ebd 717e a8bb 81c8 61bd 1293 653d
00000080: 37d9 9bbc cec6 22bd c565 bebc 2bd5 16bd
00000090: e954 673d 824a 6dbd fd9b 463d 8187 bbbc
000000a0: cc6e a1bc 6a90 c2bc 68b8 56bd 23d3 59bd
000000b0: 35d6 d03c 45cc 7cbd 46e0 19bd 4c1a 5cbb
000000c0: fd81 e73c bb8f 61bd f6b6 80bd 91f2 4c3d
000000d0: 2ee5 143d 64b8 613d df29 65bc 1692 24bd
000000e0: 6a4f 16bd 3948 5fbc 2a76 57bc 3e58 fa3c
000000f0: 63f8 283d fdcb 04bc e6e2 a5bc 0909 7cbd
00000100: a906 30bd db9c 3abd c80b 3f3d b013 453d
00000110: 8669 573d d4a0 a2bc e77e 62bd 8621 fb3c
00000120: 9984 07bd 73e0 69bd 55fd 65bd 0214 0f3d
00000130: 6820 65bd c974 16bd 8070 c8bc f462 113d
00000140: 475e afbc 12ab 75bd 1385 243d 9604 e6bc
00000150: f0fb 4fbd 79ec 7bbc 5b07 c5bc 1a1e 5d3c
00000160: d27d 74ba 2081 6ebd f1e3 063d 4a00 123d
00000170: 9ef1 b2bc ad36 5dbd 8402 333d 93b8 babc
00000180: c4e8 2bbd 19bf 7abc c15b d9bb be9e 4cbd
00000190: 124d c2bc 2dc6 c4bc 20ee 183d 5240 dbbc
000001a0: 0851 b3bc 18b7 07bd df67 2abd 7bc6 d53c
000001b0: 74e0 42bc e5f8 a4bb 19c6 8f3c 87dc 493d
000001c0: bd18 733d 72bd b1bc a323 3c3d 2c99 0b3c
000001d0: 83ea ec3c 003a edbc ce15 11bc a8bf 68bc
000001e0: dc41 c93c 2622 3d3c 0b94 dcbc 2be2 86bc
000001f0: e047 97bc b07e 223d 3944 abbc 1fd6 28bd
00000200: 77c0 083d 139d 0f3b ac43 5ebc 0e96 1fbd
00000210: 8020 763d 1c7c 5e3c 7750 fd3c 4223 1dbd
00000220: f8fa 75bc b0bb 38bc 5201 473d 725c 7e3c
00000230: eb3a 143d 5db4 063d 4223 833b 48e4 ba3b
00000240: 6bda 1f3d 6ae0 9abb f6a6 2bbd 81cf 183d
00000250: f64e 293d bded 0fbd 2bab 0c3d dc0b 143d
00000260: 815c 3abd 3700 39bc b3c7 c9bc b7b1 5f3d
00000270: 29c9 2d3c 6062 42bd 187d cd3b 6815 14bd
00000280: bfca 50bd 685a 8ebc d1e2 5d3d 4a53 28bc
00000290: 3496 473d cb6f 32bd 8866 10bd b44b e4bb
000002a0: 195a 1e3d 3dc0 c23c 0cba fb3c 37b3 393d
000002b0: 34f3 00bc 9562 893a 5ac5 e1bb b076 6cbd
000002c0: 605e 6abd 8925 083d b836 333d 1de2 273d
000002d0: d590 4cbd 90e8 943c 39db 263d ef95 24bd
000002e0: fbcf 49bd e75e 703d 6b78 e8bc 1b04 013d
000002f0: 2bbe 4c3d fcf4 7bbd bd8f e3bb 5fb7 cc3c
00000300: 6a92 443d ab87 9e3c e2c5 bbbc 6deb 543d
00000310: c08a 7dbc 3b40 cf3c f88c 253d f471 473d
00000320: 512d bdbc a05b 29bd 5a25 45bd 6fc4 62bd
00000330: fd9e b53c 6767 a93c 3af2 63bd 8922 b83c
00000340: 7884 b53b c69d fa3c 8b83 b93c cf33 7dbd
00000350: 5b8c f0bc d312 44bc 36d9 843d da8b 65bd
00000360: 81f7 39bc 0891 273d 953b e33c e906 05bc
00000370: 03b2 3ebd 2420 463d 3cc3 423d 07bc 323c
00000380: e733 7cbc 75d3 033d c33c 36bd cec4 babc
00000390: c1d7 39bc c331 dd3b e6cb 2b3d f4f1 523d
000003a0: 5505 f1bb 120e 89bb 9a8a 893c 2087 e5bb
000003b0: 42dc cdbc ad08 283d 408a 44bd 702a 17bd
000003c0: 3372 4ebd cf16 253d ed68 7abd 6d60 443d
000003d0: f8ef 15bd e7c5 853c 1d55 b6bc 1d08 5abd
000003e0: 5aa9 213d 22da f8bc 4b0b 0dbd d6d3 4abd
000003f0: 3d9c 783c cb90 593d c416 35bd 4c11 ddbc

encoder.network.3.bias f4 [256]
0.022631546 0.024375385 0.0156200975 -0.011875135 0.029761862 0.029672733 0.01928333 -0.031162385
0.03291264 -0.03798354 0.055316117 0.060300037 0.028727194 -0.021893682 -0.04492468 0.039321426
0.03568678 -0.028180132 -0.029185949 0.055228945 -0.052140832 0.050988574 0.008956664 -0.029407684
-0.04383409 -0.05948563 0.0003509054 0.053065833 0.0018958793 0.05092293 0.040519517 0.021159204
0.00020454128 -0.0035783837 -0.021126583 0.039569687 -0.029751634 0.05771506 -0.0545158 -0.03154713
-0.060932368 -0.044405375 -0.030834677 0.045891684 -0.045116123 -0.027462034 0.04662383 0.026356421
-0.03402477 0.053224254 -0.012307255 -0.031791266 -0.058854736 -0.014270409 -0.02025688 -0.049496684
-0.016059594 0.018505419 0.061954428 0.0066624084 -0.036227502 -0.048547536 0.04896389 0.019422485
-0.03667697 0.030346854 0.018375423 0.054719307 0.01671994 0.0078075137 0.03792936 -0.056112897
-0.0048098206 0.0019384549 0.0056097875 -0.028776592 0.012378168 -0.017587427 -0.05806003 0.012197968
0.035600632 -0.010038247 0.0035097532 0.04818414 -0.021996845 -0.054807473 0.012056528 0.045081846
-0.012148918 -0.04141676 0.00954108 -0.043089606 -0.051139213 -0.03910515 -0.04211055 0.013939823
-0.04526121 0.044798736 -0.026001774 0.05026025 -0.055380244 -0.05867189 -0.06126296 0.059608545
0.04397714 -0.039946094 -0.037006337 0.03735427 0.0058303643 -0.047797374 -0.029746147 -0.01819867
0.03281915 -0.007604592 -0.047648754 -0.036873516 0.04262475 -0.037303057 0.020218747 -0.005797313
-0.02308357 0.04804223 0.017869927 -0.04451926 0.057223365 -0.01291151 0.061402418 -0.047380794
0.043334633 -0.005847676 0.022452507 -0.043637276 0.022076983 -0.027494745 0.030288262 0.012318053
-0.015850296 -0.027393414 -0.02122821 0.022095883 0.016689526 -0.03359763 -0.03317359 -0.04454757
-0.013159993 0.06299759 -0.04127944 -0.02505343 -0.03352025 -0.03817845 0.060812045 0.0018561155
0.009653443 0.058398727 -0.0075023505 0.033671994 0.05525635 0.015126171 0.008046365 -0.024401521
0.020950496 -0.04690379 0.03989539 -0.0054559098 0.05018254 -0.010828028 0.03899824 -0.059079442
0.02545506 -0.04221307 0.008096895 0.03038036 -0.012019305 -0.022697967 0.0003153235 -0.005517889
-0.014401732 -0.047517437 -0.01417493 0.013763013 -0.016031949 0.019721508 -0.04489192 0.018898074
0.043091007 -0.041018516 -0.045056976 0.0033553694 -0.013901669 -0.05730089 0.047527056 0.03472726
-0.04633752 -0.036671545 0.05970581 0.030462269 0.02926408 -0.037159834 0.030220252 -0.039868034
-0.0068097445 -0.05132825 0.037288774 -0.04624211 0.030815976 -0.024336344 0.02369822 -0.009350035
-0.048302915 -0.045906357 -0.04447478 -0.026438292 0.006396779 0.019776473 0.020714127 -0.010116099
-0.0035168626 0.03498188 -0.03763897 0.05044439 -0.009081762 -0.023779243 0.038039822 -0.023262266
0.060745135 0.011257403 0.0037910275 0.056773916 0.0038446893 0.048536062 0.044518474 0.024803758
-0.0019227698 -0.05664753 0.04292631 0.06250084 0.031527057 -0.020684907 0.031647887 -0.0031365522
0.04775328 -0.025941951 0.01499363 0.039584003 -0.024603195 0.026749939 0.03577294 -0.044775285
-0.010079268 -0.010154464 0.033758823 -0.056415413 0.040525854 -0.01724236 0.030901013 -0.059918813
00000000: cb65 b93c e3ae c73c 70eb 7f3c ed8f 42bc
00000010: 26cf f33c 3b14 f33c 13f8 9d3c 4248 ffbc
00000020: 68cf 063d a194 1bbd 2793 623d 2cfd 763d
00000030: 4b55 eb3c 615a b3bc f102 38bd 810f 213d
00000040: 4d2c 123d 05da e6bc 5f17 efbc bf37 623d
00000050: a091 55bd 65d9 503d f9be 123c 62e8 f0bc
00000060: 608b 33bd 34a7 73bd baf9 b739 8f5b 593d
00000070: 277f f83a 9094 503d cbf7 253d 1156 ad3c
00000080: 227a 5639 5183 6abb a811 adbc d313 223d
00000090: b3b9 f3bc a066 6c3d f64b 5fbd 9037 01bd
000000a0: 3894 79bd 69e2 35bd 0199 fcbc ebf8 3b3d
000000b0: afcb 38bd 0ff8 e0bc a1f8 3e3d 6ce9 d73c
000000c0: 8f5d 0bbd ad01 5a3d 5ea4 49bc 8f37 02bd
000000d0: aa11 71bd 6fce 69bc c2f1 a5bc 09bd 4abd
000000e0: 698f 83bc ad98 973c edc3 7d3d 5550 da3b
000000f0: 4a63 14bd c8d9 46bd 5c8e 483d e71b 9f3c
00000100: 973a 16bd f799 f83c 0e88 963c 5a21 603d
00000110: 41f8 883c 2cd6 ff3b d15b 1b3d a3d6 65bd
00000120: b39b 9dbb c113 fe3a 4fd2 b73b e3bc ebbc
00000130: cdcd 4a3c 8213 90bc 5bd0 6dbd fcd9 473c
00000140: f8d1 113d 7677 24bc e303 663b bc5c 453d
00000150: ba32 b4bc cd7d 60bd be88 453c bea7 383d
00000160: 410c 47bc 9fa4 29bd 3152 1c3c ba7e 30bd
00000170: 5a77 51bd b92c 20bd 1d7c 2cbd db63 643c
00000180: d263 39bd e17e 373d ac01 d5bc b1dd 4d3d
00000190: 65d6 62bd f051 70bd dfee 7abd 1728 743d
000001a0: 6021 343d 849e 23bd f593 17bd cb00 193d
000001b0: a40c bf3b 2ec7 43bd 31ae f3bc 6115 95bc
000001c0: 5f6d 063d f12f f9bb 572b 43bd af08 17bd
000001d0: 4a97 2e3d 17cb 18bd c9a1 a53c 63f7 bdbb
000001e0: c119 bdbc eec7 443d f463 923c d459 36bd
000001f0: 0c63 6a3d cc8a 53bc 1a81 7b3d 5d12 42bd
00000200: a87f 313d dd9d bfbb 52ee b73c 00bd 32bd
00000210: cada b43c a93c e1bc 171f f83c a9d1 493c
00000220: 7bd8 81bc 2768 e0bc c8e6 adbc 6d02 b53c
00000230: 79b8 883c ab9d 09bd 08e1 07bd 8377 36bd
00000240: 039d 57bc e104 813d a114 29bd da3c cdbc
00000250: 884c 09bd 0261 1cbd 0d16 793d e748 f33a
00000260: 7929 1e3c 8133 6f3d 47d6 f5bb a5eb 093d
00000270: 7c54 623d c2d3 773c e7d4 033c b3e5 c7bc
00000280: 60a0 ab3c 301e 40bd 5969 233d 7dc7 b2bb
00000290: 358c 4d3d 0b68 31bc 9ebc 1f3d 49fd 71bd
000002a0: 2187 d03c 9de7 2cbd d7a8 043c 3ce0 f83c
000002b0: 9eec 44bc 16f1 b9bc 0152 a539 68cf b4bb
000002c0: 3ef5 6bbc a5a1 42bd f73d 68bc 437e 613c
000002d0: 6f55 83bc 008f a13c 97e0 37bd 22d0 9a3c
000002e0: 3280 303d 0803 28bd aa8d 38bd c2e5 5b3b
000002f0: d3c3 63bc 57b4 6abd bbab 423d 2c3e 0e3d
00000300: 69cc 3dbd e734 16bd 148e 743d 028c f93c
00000310: 39bb ef3c e934 18bd 7690 f73c aa4c 23bd
00000320: 4724 dfbb 923d 52bd 1dbc 183d 5e68 3dbd
00000330: c971 fc3c 035d c7bc c522 c23c e430 19bc
00000340: 47d9 45bd 4e08 3cbd 302b 36bd 1e95 d8bc
00000350: 129c d13b 4502 a23c acb0 a93c ffbd 25bc
00000360: 2a7b 66bb 2949 0f3d 522b 1abd c79e 4e3d
00000370: accb 14bc b0cc c2bc a5cf 1b3d 8290 bebc
00000380: e4cf 783d f870 383c e372 783b c48b 683d
00000390: 2ff7 7b3b c0cd 463d 0159 363d 4031 cb3c
000003a0: 7305 fcba 3e07 68bd 80d3 2f3d 7100 803d
000003b0: 8422 013d 6573 a9bc 37a1 013d 9d8e 4dbb
000003c0: f198 433d 3784 d4bc d8a7 753c d622 223d
000003d0: a48c c9bc b022 db3c a586 123d 4a66 37bd
000003e0: 8423 25bc e95e 26bc b146 0a3d d913 67bd
000003f0: 70fe 253d da3f 8dbc 1f24 fd3c 6e6d 75bd

head.weight f4 [1, 256]
-0.035269216 -0.029808965 -0.04389826 0.03242754 0.013808133 -0.025326202 -0.046768267 -0.053344224
-0.021439359 -0.015956014 0.04358539 -0.013488939 0.00962153 0.014647076 0.05120583 -0.0595746
0.055565473 -0.049170703 -0.062468067 -0.05248372 0.057552982 0.017452648 -0.033038907 -0.046206556
-0.041174117 -0.058426872 -0.01256443 -0.06381255 0.059196122 -0.028006217 0.03815706 0.04841581
-0.05708771 -0.055021428 -0.061237168 -0.028638933 -0.013971178 0.005718729 0.047967907 0.0554944
0.013140071 -0.01130409 0.022774572 0.02186549 -0.06571503 0.059906416 -0.043515705 -0.059480958
-0.041415427 -0.025400441 0.031414684 0.019274417 -0.012290507 -0.029637631 -0.0021042319 -0.009051098
0.013063727 -0.031133294 0.04334103 -0.037481498 0.009351569 0.030157357 0.046836708 -0.027711552
0.021165023 0.010361702 -0.02089204 -0.041886505 0.016974853 0.044969566 -0.026426503 0.011436415
0.023278207 0.026988463 0.025646558 -0.056469455 0.00825142 -0.044112433 0.061019685 0.053529788
0.03388301 0.0089272335 0.016434735 0.003981405 -0.015350232 0.0024000846 0.036384545 0.030512491
0.0337751 -0.013840967 -0.02979443 -0.040811095 0.007767427 0.04956701 -0.030186377 0.025805056
0.038281612 -0.018791528 0.0602728 0.060398955 0.0093759 -0.03500225 -0.00834735 -0.060698524
-0.031381834 0.025522256 0.02852116 -0.012486772 0.04633329 -0.05113568 -0.040448915 -0.042442184
-0.03994647 -0.052404575 -0.007707192 -0.034775946 -0.034550074 -0.055240083 -0.05985103 0.030037219
0.040098827 0.049431328 -0.05499151 -0.024174474 -0.0045250272 -0.024893135 0.036196884 0.0048632715
-0.0059871157 0.033991978 -0.024255859 -0.053398896 0.024998134 0.058794007 -0.024918947 0.025099667
-0.023229368 0.011605055 -0.05963909 -0.02621721 0.044016644 -0.0544887 0.06386023 -0.058688454
0.01924468 0.028803397 0.0057023335 0.023539305 0.040038254 -0.056331728 0.031295672 0.04654184
-0.0596599 0.037497655 0.019913284 0.02799448 -0.06190498 0.015388892 -0.050133314 -0.01622612
-0.05370925 0.013590572 -0.06099398 -0.011855885 0.024179725 0.02945456 0.008245453 -0.06354119
-0.0023492156 -0.053297754 0.065876216 0.023157362 -0.0067254985 -0.015598306 -0.032916166 0.00078190013
0.05556615 0.02620874 -0.027839322 -0.02030829 0.044384237 0.021911005 0.00091049256 0.054007325
-0.0149942925 -0.04555958 -0.06523584 0.060231175 -0.03502471 0.010071436 -0.033375632 0.021422751
0.044072963 0.05009967 -0.048024192 0.034362238 0.060765993 0.028296126 -0.03324013 -0.023115363
-0.0031488896 -0.055626724 -0.049675737 -0.052068383 0.037443537 -0.0121333 0.024356296 -0.023733288
0.049868535 -0.06362496 -0.025367444 0.001083306 -0.0560693 0.026852993 -0.01979903 0.048533376
0.013154614 0.020345626 -0.056739774 0.05136595 -0.055977795 -0.010911591 0.028843405 -0.02861013
0.04416426 0.03216547 0.011388836 -0.048536364 -0.05042932 -0.0470765 -0.00555009 -0.063037336
-0.024579462 -0.04059954 0.024945589 0.05512097 -0.041584652 0.013346347 -0.044553805 0.02561005
0.025185691 0.061359316 -0.044653565 0.0581791 0.03446333 0.0012044928 -0.048197027 0.05718153
-0.0316701 -0.059022713 0.0052729566 0.038984787 -0.057682812 -0.044516787 0.01732978 -0.002074101
00000000: 7476 10bd ee31 f4bc a9ce 33bd bdd2 043d
00000010: 823b 623c e578 cfbc 1590 3fbd 797f 5abd
00000020: 98a1 afbc 30b6 82bc 9886 323d b600 5dbc
00000030: 9fa3 1d3c 4afa 6f3c 34bd 513d 7f04 74bd
00000040: 9f98 633d 3867 49bd 84de 7fbd 2bf9 56bd
00000050: adbc 6b3d dbf8 8e3c ce53 07bd 1643 3dbd
00000060: 31a6 28bd 0451 6fbd 0adb 4dbc 27b0 82bd
00000070: a277 723d 4b6d e5bc 944a 1c3d a84f 463d
00000080: cdd4 69bd 265e 61bd d3d3 7abd 329c eabc
00000090: 5ee7 64bc 2d64 bb3b ff79 443d 194e 633d
000000a0: 7449 573c ca34 39bc bd91 ba3c 421f b33c
000000b0: 9a95 86bd 6e60 753d 863d 32bd 4ea2 73bd
000000c0: 39a3 29bd 9614 d0bc afac 003d 62e5 9d3c
000000d0: 1f5e 49bc 9eca f2bc 27e7 09bb 0e4b 14bc
000000e0: 3e09 563c 400b ffbc 5d86 313d 3386 19bd
000000f0: 5337 193c 900c f73c d9d7 3f3d 5603 e3bc
00000100: 4562 ad3c 21c4 293c c925 abbc 2f91 2bbd
00000110: d90e 8b3c 0232 383d 657c d8bc cd5f 3b3c
00000120: f0b1 be3c e916 dd3c bb18 d23c 844c 67bd
00000130: f730 073c 3daf 34bd c7ef 793d 0d42 5b3d
00000140: e9c8 0a3d 8843 123c 23a2 863c 7276 823b
00000150: 8a7f 7bbc bd4a 1d3b f607 153d 55f5 f93c
00000160: c257 0a3d 39c5 62bc 7313 f4bc 8929 27bd
00000170: e685 fe3b c706 4b3d 6c49 f7bc 2065 d33c
00000180: 2ecd 1c3d b1f0 99bc 9de0 763d e564 773d
00000190: 609d 193c 855e 0fbd 53c3 08bc 049f 78bd
000001a0: 3d8a 00bd 0d14 d13c 35a5 e93c 5195 4cbc
000001b0: fac7 3d3d a673 51bd c3ad 25bd dbd7 2dbd
000001c0: e99e 23bd 2ea6 56bd 9d8c fcbb 3971 0ebd
000001d0: 6184 0dbd 6d43 62bd 5b26 75bd 9d10 f63c
000001e0: ab3e 243d 8178 4a3d c73e 61bd 8c09 c6bc
000001f0: ae46 94bb b0ec cbbc 2f43 143d 145c 9f3b
00000200: 912f c4bb 2c3b 0b3d 39b4 c6bc cdb8 5abd
00000210: e3c8 cc3c fcd1 703d d222 ccbc d19d cd3c
00000220: 844b bebc 2123 3e3c 1e48 74bd 79c5 d6bc
00000230: cc4a 343d 8b2f 5fbd 27c9 823d 4e63 70bd
00000240: 05a7 9d3c 1af5 eb3c a4da ba3b 80d5 c03c
00000250: 27ff 233d 19bc 66bd e42f 003d a8a2 3e3d
00000260: f05d 74bd 2497 193d 2f21 a33c ae54 e53c
00000270: 1490 7dbd b121 7c3c 9758 4dbd a4ec 84bc
00000280: 3bfe 5bbd feaa 5e3c d3d4 79bd 303f 42bc
00000290: 8f14 c63c b04a f13c f017 073c e221 82bd
000002a0: 4cf5 19bb bf4e 5abd 1cea 863d 82b4 bd3c
000002b0: 9261 dcbb 0a90 7fbc 1ad3 06bd 6ef8 4c3a
000002c0: 5599 633d b6b3 d63c 4a0f e4bc 925d a6bc
000002d0: 3fcc 353d b57e b33c 1fae 6e3a c936 5d3d
000002e0: 9faa 75bc af9c 3abd 5e9a 85bd f7b4 763d
000002f0: 1276 0fbd aa02 253c e3b4 08bd c47e af3c
00000300: da85 343d 5035 4d3d 04b5 44bd 6bbf 0c3d
00000310: c3e5 783d 47cd e73c cd26 08bd 6e5c bdbc
00000320: 9a5d 4ebb d9d8 63bd c978 4bbd a845 55bd
00000330: 655e 193d c0ca 46bc db86 c73c 506c c2bc
00000340: f342 4c3d ce4d 82bd 63cf cfbc b8fd 8d3a
00000350: eca8 65bd cffa db3c 9331 a2bc efca 463d
00000360: 7386 573c dfab a63c f767 68bd 1a65 523d
00000370: f948 65bd 88c6 32bc 0149 ec3c cb5f eabc
00000380: 95e5 343d f1bf 033d 3e98 3a3c 11ce 46bd
00000390: fa8e 4ebd 4ad3 40bd 88dd b5bb b819 81bd
000003a0: de5a c9bc b44b 26bd b15a cc3c 87c6 613d
000003b0: ab54 2abd a3aa 5a3c 0d7e 36bd 2bcc d13c
000003c0: 3952 ce3c e853 7b3d a8e6 36bd 354d 6e3d
000003d0: 6c29 0d3d 12e0 9d3a 3f6a 45bd 2e37 6a3d
000003e0: 82b8 01bd cdc1 71bd c4c8 ac3b 83ae 1f3d
000003f0: d044 6cbd 3c57 36bd 2ff7 8d3c a4ed 07bb
